dump_Rope/train_Rope_CKO_demo/net_best.pth (torch_old, 764725 bytes, 32 tensors)

state_encoder.obj_encoder.model.0.weight f4 [100, 6]
000000 8c 4b c5 3d 33 5f ab 3d db 92 9c be 28 53 fb bd
       0.0963355 0.08367767 -0.30580792 -0.1227172
000010 c3 88 ae bc 4b eb 5c 3e 10 f0 2c bd b7 35 92 be
       -0.021305447 0.21574132 -0.04222113 -0.28556606
000020 1a 0a a4 3e ae 7b 19 be 13 db ef bb da d1 c5 3e
       0.32038957 -0.14988586 -0.007319817 0.38636667
000030 2a 3d 45 3e b9 ab 9f be 44 d1 57 be 11 84 92 be
       0.19261613 -0.311857 -0.21075922 -0.28616384
000040 4a 1c b0 3d e6 92 dd bd b3 57 ee bc 8e 76 af 3d
       0.08599146 -0.10819034 -0.029094553 0.085675344
000050 3c 3d 0c bc 94 b3 2b 3e 28 21 97 be 30 ad 21 be
       -0.008559521 0.16767722 -0.29517484 -0.15788722
000060 d7 1b 18 be 21 d6 5b be cb 99 31 bc d9 e4 8b bc
       -0.1485437 -0.21468402 -0.01083989 -0.017076897
000070 47 1e ea 3e 03 d3 19 3d 9c 5e 37 3d 26 71 83 3d
       0.45726225 0.037554752 0.04476796 0.06418066
000080 ca 36 72 be d4 d8 c0 3e 7c 52 4b 3e 3e 5f 9d be
       -0.23653713 0.37665427 0.19855684 -0.30736727
000090 1d 76 9d 3d e6 cc 54 be cc 53 90 be b7 24 f0 be
       0.07688544 -0.20781288 -0.28188932 -0.4690301
0000a0 9c 88 4d be 38 f4 7f 3e 27 cd 6d 3e 65 a4 9b 3e
       -0.20071644 0.24995506 0.2322279 0.3039886
0000b0 31 73 ae be 28 60 a1 3d a3 7b 7b 3e f6 3c a9 3e
       -0.3407226 0.078796685 0.24558882 0.33054322
0000c0 28 06 97 3e 04 ac 79 be 35 a4 bd be ec 8f af 3d
       0.29496884 -0.24382025 -0.37039343 0.08572373
0000d0 6e c9 e4 3e 85 ce 85 3d 7b 18 71 be 74 cb b7 be
       0.4468493 0.06533531 -0.23544495 -0.3589741
0000e0 fe 00 be 3d 40 d6 77 3e 26 73 5a 3e 59 37 82 be
       0.09277533 0.24202824 0.21332988 -0.25432852
0000f0 f9 ce 37 3e 92 5f 8d be c9 a9 3c be 38 36 5e bd
       0.17950048 -0.27611977 -0.18424143 -0.054250926
000100 38 7a 63 be 98 7c ab 3e a5 ef c9 3d 6b 22 91 3e
       -0.22214592 0.33493495 0.09860162 0.2834657
000110 e3 64 81 3e 51 ee 41 3d e7 08 16 3e 32 e0 d0 be
       0.25272283 0.047346417 0.14651833 -0.40796047
000120 cc 58 14 3d 3a 73 6c be 46 18 9a be c1 67 62 3d
       0.036217496 -0.2309083 -0.30096644 0.05527473
000130 34 c5 97 3e 36 99 cf 3e 9a 7a b7 be 19 a9 f7 3d
       0.29642642 0.40546578 -0.35835725 0.120928
000140 e6 f9 a7 3e 54 98 14 3e b1 23 76 3c 1f cf 62 be
       0.32807845 0.14511234 0.015023158 -0.22149323
000150 6f ad ce bd 98 32 f0 bd c5 4c 5d 3e 47 2e 81 bd
       -0.100916736 -0.117284 0.21611317 -0.06307655
000160 c5 be 9d be 25 13 3d 3d 59 03 47 be 3b 77 25 3d
       -0.30809608 0.046160836 -0.19434871 0.04039691
000170 e5 8a ae 3e c5 24 9b 3e 58 fd c2 be fb 40 9e 3e
       0.34090343 0.3030149 -0.3808391 0.3090895
000180 2c 8d a0 be 77 fe 8e be 29 b4 b1 3e c7 d4 ac be
       -0.31357706 -0.27928516 0.34707764 -0.33756086
000190 e5 71 d6 be 9f b2 9e 3e 76 37 dc be b4 56 88 3e
       -0.4188377 0.30995652 -0.43011063 0.2662865
0001a0 cb fb 87 3e 1c 71 94 be ec 03 83 3d e1 e7 d9 3e
       0.2655929 -0.28992546 0.063972324 0.42559722
0001b0 19 f9 78 3e 6b 08 30 3e 34 ed a6 be 93 ff f5 bd
       0.24313773 0.17190711 -0.32602847 -0.120116375
0001c0 f6 d1 24 be db 9c be be c2 c4 89 3e b5 1f ce 3e
       -0.16095719 -0.37229046 0.26907927 0.40258566
0001d0 fb 0c 6b 3e 48 89 a6 be fa b4 75 3e 67 57 fb bd
       0.2295417 -0.32526612 0.23994818 -0.1227253
0001e0 64 b9 de bd 84 1f 78 be 59 f2 87 be 00 77 de bb
       -0.10875204 -0.24230772 -0.26552084 -0.0067890882
0001f0 33 55 d1 3e 89 f5 c5 3b af 82 d7 bd c3 0f 58 be
       0.40885314 0.006041233 -0.10522973 -0.21099763
000200 e0 19 a5 3e 39 06 05 bd 24 3c 2d 3e 55 03 fb 3d
       0.32246304 -0.032476638 0.16917473 0.12256495
000210 1c 8d a8 be a9 6a 4b be 94 da c0 3d 58 3a 66 be
       -0.32920158 -0.19864906 0.094166905 -0.22483194
000220 23 19 39 bd 25 b3 ad be bf 28 c7 3d eb bf 50 3e
       -0.045189988 -0.3392574 0.097245686 0.20385711
000230 00 d0 57 be ff 05 a5 bd 71 7c 80 bd 90 52 bb bd
       -0.2107544 -0.08057784 -0.06273735 -0.09146607
000240 f9 a1 b6 be 5d c1 d4 3e 71 5b 92 be 54 8a f3 3d
       -0.3567045 0.41553774 -0.2858539 0.11891618
000250 3d e9 94 be e8 da 27 3e a0 8d 2a 3e 82 ef b6 3d
       -0.29084197 0.163921 0.16655588 0.08932401
000260 e9 84 99 be a0 7a bc 3d b6 6b f5 3e 9d 93 a7 bd
       -0.29984215 0.09203076 0.4793374 -0.08182452
000270 9b 3a ac be 06 cc 54 3d 01 80 a8 be 81 e9 25 3e
       -0.33638462 0.051952384 -0.3291016 0.16202356
000280 8e 4a b3 3c c1 2d e2 bc 4f 31 8b be 1d ec 71 3d
       0.021886136 -0.027609708 -0.27186057 0.059063066
000290 00 72 98 be ae b6 12 3e 8f dd cb 3c ff 99 a8 3e
       -0.29774475 0.143275 0.02488592 0.3292999
0002a0 3a 1d b3 bd 5b 9e 58 be 1c 45 be be fc f9 80 3e
       -0.08745809 -0.21154158 -0.371621 0.25190723
0002b0 55 ce d4 be 54 77 73 3e 2f d5 d3 3e e7 d9 b4 3e
       -0.4156367 0.23775989 0.41373584 0.35322496
0002c0 c8 e2 48 3e dd f0 8b 3d 9d bf ce be d0 28 ce bd
       0.1961776 0.068330504 -0.40380564 -0.10066378
0002d0 b9 71 88 bd c6 24 0d bd a1 8b d2 3e d0 bc 3f be
       -0.06662316 -0.034458898 0.41122153 -0.1872437
0002e0 b4 32 2a bd 76 a6 e9 3d 70 9c e4 bc e6 36 9b be
       -0.04155226 0.11408703 -0.027906626 -0.30315322
0002f0 e5 3c b2 3e 28 43 d5 3c f7 d3 65 bc 82 4c a0 3d
       0.34812084 0.026033 -0.014027587 0.07827093
000300 ad be 3f be bc d9 62 3c 84 83 24 3d 66 3e be 3e
       -0.18725081 0.013845857 0.040164486 0.3715698
000310 a5 aa 87 3e 7f 0a 9e 3e dd 98 5f 3e 52 85 cd 3d
       0.2649738 0.30867383 0.21835656 0.100351945
000320 7e 47 a5 3e 7e 28 d9 3b 1f 93 fb 3c e5 58 b2 be
       0.32281107 0.0066271415 0.030709801 -0.34833446
000330 67 26 fb be 63 c5 9f bd f0 a0 78 be 7c 13 19 be
       -0.49052736 -0.078013204 -0.24280143 -0.14948839
000340 f6 e0 64 3e a7 bc 5f be a0 28 2c 3e 32 ac 81 be
       0.22351441 -0.21849309 0.16812372 -0.25326687
000350 84 52 f6 bd d4 20 b0 be 44 2c 10 3e 51 35 4b 3d
       -0.12027457 -0.34400046 0.14079386 0.049611393
000360 2d 28 90 be f2 f2 50 3e 29 32 59 3e 88 a4 80 bc
       -0.28155652 0.20405176 0.21210541 -0.015703455
000370 1b a8 b0 3e 2a 94 57 be 1a d5 bf bd a9 4e ae 3e
       0.34503254 -0.21052614 -0.09366818 0.34044388
000380 da 51 80 be ed ea a9 be 6a d1 31 3e 27 1b d2 3e
       -0.25062448 -0.33187047 0.17365041 0.4103634
000390 e0 3d 22 be 67 13 97 be 5b 87 13 3e a0 b5 9b be
       -0.15843916 -0.2950699 0.14407103 -0.30412006
0003a0 fd 9d 8a 3e ac ee 8a 3e db ac 9a 3e 1f 00 f2 bd
       0.2707366 0.27135217 0.30210003 -0.11816429
0003b0 ac 95 86 be 61 80 5c 3e d2 c1 9c 3e f7 d6 8c be
       -0.26286066 0.21533348 0.30616623 -0.27507755
0003c0 48 d5 98 3e 9a ba 19 be 80 56 f5 3d 02 10 2e be
       0.2985022 -0.15012589 0.11979389 -0.16998294
0003d0 82 b9 d0 be d4 a6 c7 be 5a fd 8c be 45 59 d9 3e
       -0.4076653 -0.38994467 -0.27537042 0.4245092
0003e0 a8 c9 88 be 2b 34 b6 3d 18 7b ec 3d 50 70 2f 3e
       -0.26716352 0.08896669 0.11546916 0.17132688
0003f0 a9 87 66 3e 14 4e a6 bd a2 3b 0a 3e 9d 2f ac 3e
       0.22512688 -0.08120361 0.1349931 0.33630076

state_encoder.obj_encoder.model.0.bias f4 [100]
000000 c6 81 84 bd 8f 35 af bd ba 1c 1c 3e bb c4 1d bd
       -0.06470065 -0.08555137 0.15245333 -0.038517695
000010 71 2a 7b 3c 02 e0 0a bd 83 ff 3f 3d 53 fb 61 3e
       0.015329943 -0.033905037 0.046874534 0.22068529
000020 03 17 30 3e 49 3e d7 be 6d a3 7f be c5 3b 8d be
       0.17196278 -0.42039707 -0.24964686 -0.27584663
000030 86 75 74 be bd 62 fa bd c8 ad 05 bd 9d 43 f5 bd
       -0.23872957 -0.12225864 -0.032636434 -0.11975787
000040 a6 80 fc 3a ac 01 7a be d9 ff 84 be 1c 4f cd 3e
       0.0019264414 -0.244147 -0.25976446 0.40099418
000050 b9 1b dc be 5c e7 6d 3e 35 e5 31 3d 4a ad 32 3e
       -0.429899 0.23232788 0.04343148 0.17448917
000060 89 06 97 be 3a 00 b7 3d 5d 1b db be 05 af 87 be
       -0.29497173 0.0893559 -0.42794314 -0.26500717
000070 e3 8e f2 be 5e 31 29 3d 1b 28 8b be 2a 2d 96 be
       -0.4737464 0.041306846 -0.27179036 -0.29331332
000080 0d eb 9a be a4 a5 60 bd 64 f7 aa 3e 60 00 ec be
       -0.30257455 -0.054845467 0.3339187 -0.46094036
000090 c8 0b 38 be 7f 13 81 be eb 13 e2 be af 69 2b 3e
       -0.17973244 -0.25210187 -0.4415582 0.16739534
0000a0 b2 e1 e1 be 44 13 c8 3e 01 dd 89 be ba 7d d2 3e
       -0.44117504 0.39077199 -0.26926425 0.41111547
0000b0 74 88 91 be 91 65 c8 3d 8d 27 b5 bd 5e dd b7 bd
       -0.28424418 0.09784997 -0.08845434 -0.08977769
0000c0 cb 96 bb 3e 8d ed 5e 3b 93 35 4e bd 50 3b 1d 3d
       0.36638483 0.0034016103 -0.05034406 0.038386643
0000d0 e0 25 24 3e 3b 3a 93 be 8b e2 2f be da 53 85 3e
       0.16030073 -0.28755364 -0.17176263 0.26040536
0000e0 8d 04 d2 be 6f e7 4e 3e c1 ed ad 3c 32 a7 0b bf
       -0.41019097 0.20205472 0.021231534 -0.54551995
0000f0 7e 9a 22 bd ff 09 8f be ea cc 44 3d 2f 88 0a be
       -0.039698116 -0.27937314 0.048046984 -0.13528512
000100 3e 35 32 be ee 66 1b be 52 02 44 bd 83 d5 8b be
       -0.17403123 -0.15175983 -0.047853775 -0.27311334
000110 33 33 24 3c 27 3a 4b be 69 d2 d2 bd a3 1c c7 3e
       0.0100219725 -0.19846402 -0.10294039 0.38889036
000120 1a 15 62 be 52 f1 88 be a5 07 67 be ed 6f 04 be
       -0.22078362 -0.26746613 -0.2256151 -0.12933321
000130 eb ee 59 3e 64 81 2a 3d c3 a4 78 bd 72 ef bd 3e
       0.21282546 0.041627303 -0.060704004 0.37096745
000140 ce 43 d1 be d7 c3 86 3e 9e 93 d1 bd f3 97 e9 bd
       -0.40872043 0.2632129 -0.10233234 -0.11405935
000150 77 30 b6 3d f5 67 87 be 85 29 a1 3e 7f d0 ab be
       0.08895963 -0.264465 0.3147699 -0.33557507
000160 1a 7b 35 3d db 16 1e 3e 40 f2 aa be f8 67 be bd
       0.044306852 0.15438406 -0.33387947 -0.09297174
000170 05 e5 43 3e 0c 31 c5 3e 88 cd 54 be 0f 78 6d 3d
       0.19130333 0.38513982 -0.20781529 0.057975825
000180 46 70 ae be 37 96 0c be 68 91 9a 3e f1 e4 8c be
       -0.34070033 -0.13729177 0.3018906 -0.27518418

state_encoder.obj_encoder.model.2.weight f4 [100, 100]
000000 13 ab c9 bd 26 1c 1e bd 3c b3 a7 bd 11 84 92 3d
       -0.09847083 -0.038601063 -0.08188483 0.07154096
000010 91 81 22 3a a2 c5 7e 3c 75 3d 88 3d 94 fa 58 bd
       0.00061991165 0.015550049 0.06652347 -0.052973345
000020 9e cc 9c 3d 82 83 e0 bd 24 d1 02 3d d1 03 e3 bd
       0.07656215 -0.10962583 0.031937733 -0.11084712
000030 09 5d 9a bc f1 88 1d bd 4a d5 c2 3d 12 5f 14 bd
       -0.01884319 -0.038460676 0.09513338 -0.03622348
000040 81 5f 05 be 35 bc 94 3b d6 75 85 bd 37 75 d7 3c
       -0.13024713 0.0045390376 -0.06516616 0.02630101
000050 7e a4 62 bd 78 fb 7b bd 6d 9e 8d 3d c9 b6 bb bc
       -0.055332653 -0.061519116 0.06914983 -0.022914307
000060 d4 e0 57 3d f2 ee 53 bd bd e7 12 be fd f7 02 be
       0.052704647 -0.051741548 -0.14346214 -0.12789913
000070 ec b4 db 3c 1f b0 69 3b c2 a4 c6 bc 7d 9f 56 3d
       0.026819669 0.0035657955 -0.024248485 0.052398194
000080 9c f3 f9 bc 7d 2c 93 bd 42 7b 83 3c 30 94 df bd
       -0.03051167 -0.0718622 0.016049985 -0.109169364
000090 e4 52 12 bd de 6c 86 bd 70 5b 04 bd a7 e8 bf 3c
       -0.035723582 -0.065637335 -0.032313764 0.023426367
0000a0 10 a9 96 bd 66 73 a9 3d 2b c9 81 3b ea 1f e9 3d
       -0.07356465 0.08273964 0.0039607487 0.1138304
0000b0 b6 be e8 3c aa f3 5c bd 40 a0 b2 bc 99 98 ad 3d
       0.02841125 -0.053943314 -0.021804929 0.08476371
0000c0 4e f5 c9 3d 52 2b c8 3d 06 33 82 bd 7c b4 d6 bb
       0.09861241 0.09773888 -0.06357388 -0.006552277
0000d0 00 55 86 3d 2a 65 72 3c 12 65 25 3a 79 60 82 bc
       0.06559181 0.014794627 0.0006309311 -0.015915142
0000e0 b7 4f d0 bd 9e de 96 3d 90 51 bf 3c ec f3 32 bd
       -0.101714544 0.073666796 0.023354322 -0.043689653
0000f0 61 ba 7f bd 19 5d ef bc 38 d0 0e 3c c0 24 0e bc
       -0.062433604 -0.029219197 0.008716635 -0.008675754
000100 c9 38 10 bd ec e3 b5 3c 92 75 6b bd 39 75 5b bd
       -0.035210405 0.022203408 -0.05748517 -0.05357859
000110 05 6b 40 3c d0 a7 39 3d 86 2d 06 3c 07 e7 06 3e
       0.011744265 0.045326054 0.008189565 0.13174067
000120 1f 27 67 bd 71 49 fb bc 48 87 48 be a1 02 04 3d
       -0.056433793 -0.030674668 -0.19582856 0.03222907
000130 97 46 9d bc 40 37 b3 3d fc ac dd bc 67 4a a0 3c
       -0.019198699 0.087507725 -0.027060024 0.019566728
000140 56 f1 2a bb 4e d3 f3 3b c1 19 6e 3d 17 d0 08 bd
       -0.0026083789 0.007440961 0.05813003 -0.033401575
000150 9e 2c 7c bd c1 ab 84 bd 2f 6b 06 bd 61 99 b8 bd
       -0.061565988 -0.06478072 -0.032817062 -0.0901363
000160 20 33 f0 3c d3 ec 25 bd 21 a9 c5 3c 04 8c e5 3c
       0.029321253 -0.040509056 0.024128499 0.028020866
000170 58 e0 0c 3d 0b 82 ad 3d c1 ab 74 3d 91 14 d8 bd
       0.03439364 0.08472069 0.05973411 -0.10550798
000180 7b a8 7b 3c c6 b9 fa bd 80 a8 e0 3d f3 dd 5a 3d
       0.015359993 -0.12242465 0.10969639 0.053434324
000190 8c 52 be bd 79 bd c1 3d c6 3a b1 3d a6 aa f6 bc
       -0.09293088 0.09459967 0.08653788 -0.030110668
0001a0 b9 8a 88 bd ea ee 1f 3d 1b 90 83 3d 12 a6 82 bd
       -0.06667084 0.039046206 0.0642397 -0.06379332
0001b0 cd 9e ff bb db e4 a6 bd c5 81 0a 3c 19 f3 ca 3d
       -0.007800913 -0.081491195 0.008453791 0.099096484
0001c0 7a 2e fe bd db aa a8 3d 09 67 3d 3c 85 a9 0c 3e
       -0.124112085 0.08235713 0.01156021 0.13736542
0001d0 b0 9c 45 3d 21 3a 1b bd 21 55 b9 3a 0b da 89 3d
       0.048245132 -0.037897233 0.001413975 0.067310415
0001e0 c2 3d 12 bd b3 48 26 3c 1c e0 4a bd e9 75 56 3d
       -0.035703428 0.010149169 -0.049530134 0.05235854
0001f0 9f 83 02 3d 31 71 e1 3b fd 4e 83 3d 78 37 af 3d
       0.031863805 0.0068799485 0.0641155 0.08555502
000200 f4 09 aa bd 54 21 e9 3d 7a 80 d6 bd c6 e7 42 3e
       -0.0830268 0.1138331 -0.10473724 0.19033727
000210 ae 94 aa 3d dd 01 26 3c 01 56 92 bd 13 c3 d1 bd
       0.0832914 0.01013228 -0.0714531 -0.102422856
000220 44 b5 56 3d 21 b0 61 bc ff 19 bc bd 6a 7e dd bc
       0.052418962 -0.013774903 -0.09184646 -0.027037818
000230 d8 ba 97 3d e8 4b f7 bc 09 2b de 3d a4 7e 3a 3d
       0.074086845 -0.030187562 0.10848052 0.04553093
000240 78 62 d9 3c 75 69 dc 3c 5f 3b 6b 3d d4 2c b8 bc
       0.026536211 0.026905755 0.057429668 -0.022482313
000250 84 c8 db bd 62 4d bb 3c 22 b0 01 bd 2b d8 d3 3c
       -0.10731605 0.022864047 -0.031662114 0.025859913
000260 f0 13 a3 bd 98 66 ca bd b3 91 43 bc f4 e1 0e bd
       -0.07962787 -0.098828495 -0.011936593 -0.034883454
000270 4b 92 95 bd 50 b3 a5 3c 89 b9 e2 bd 0a 56 aa bd
       -0.07303294 0.020227104 -0.11070544 -0.08317192
000280 59 58 52 3c ac 66 97 3d 79 d6 07 bd 3e 60 a7 bd
       0.012838447 0.0739263 -0.03316352 -0.081726536
000290 02 d5 91 bd 8d ae cd bd 1b 87 21 3d 96 af 34 3d
       -0.07120706 -0.100430585 0.039435487 0.044112764
0002a0 69 95 ce 3d 96 f1 8a bd 93 0f aa 3a e6 cf 8d 3d
       0.100870915 -0.0678436 0.0012974612 0.06924419
0002b0 17 55 d1 bd e4 5c 09 bd 43 db 3b 3d b9 7c 32 3d
       -0.10221308 -0.033535853 0.0458634 0.043575976
0002c0 34 50 54 bd d2 7b f2 bd 50 47 0e 3e aa 2a 9e 3d
       -0.0518343 -0.11840023 0.13894391 0.07722981
0002d0 22 c1 0f bd 49 86 93 bd ab b5 68 3d 99 f2 18 3d
       -0.035096295 -0.07203347 0.056813877 0.037340734
0002e0 8e 29 13 bd 0f da 17 3c fe d6 1f 3d f5 30 ce bd
       -0.0359283 0.009268298 0.039023392 -0.100679316
0002f0 5b f8 ae 3d 35 03 30 bd e9 32 88 3d 35 dc b1 bb
       0.08543464 -0.04297181 0.06650335 -0.005427862
000300 38 59 69 bc 71 38 47 3d bc 72 11 bd f9 12 39 bd
       -0.014242463 0.04863781 -0.03550981 -0.04518411
000310 fb a4 87 3d 4d a2 1c 3d a0 46 b1 3d fa 43 1b 3e
       0.066232644 0.03824072 0.08656049 0.1516265
000320 50 38 70 3d 10 d6 9b 3d cf 13 91 bc f4 53 24 3d
       0.058647454 0.076091886 -0.01770964 0.040119126
000330 10 24 56 3d 32 05 7f 3d 50 99 55 bd bf 08 53 3d
       0.052280486 0.062260814 -0.052148163 0.051522013
000340 2d df 69 3d ff 59 4c 3c 60 26 9e 3d 55 dc 06 3e
       0.057097603 0.012472629 0.07722163 0.13169987
000350 60 f4 56 bd 09 51 51 bd 60 83 bc 3d 05 45 36 3c
       -0.052479148 -0.05110267 0.09204745 0.011124854
000360 07 dc 12 3d 68 02 3e 3c 86 cc 41 3b 84 b6 9a 3d
       0.035854366 0.011597253 0.0029571368 0.07554343
000370 99 1d b5 3d bb eb 75 bc 57 a8 1f 3d da fc 85 bd
       0.08843536 -0.015009816 0.0389789 -0.06542368
000380 f0 8c df 3c b1 38 89 bd 68 88 95 bc 14 4f da bd
       0.027288884 -0.06700266 -0.01825352 -0.10659614
000390 cb 22 ea 3d 4a 48 6a 3d 16 db c4 3d f4 5e ea bd
       0.114324175 0.057197846 0.096121 -0.11443892
0003a0 ab 91 f0 3c e2 3f 3f 3d 00 ca 80 bd b7 83 5d bd
       0.029366335 0.046691783 -0.062885284 -0.05408069
0003b0 73 21 f9 3c 24 d4 34 3d aa 96 39 bd 4a e8 60 3d
       0.030411458 0.044147626 -0.0453097 0.054909028
0003c0 3e ad 47 3e 94 3e a4 bd 3b ab 04 be c2 3e a8 3d
       0.1949968 -0.08019748 -0.12955944 0.08215095
0003d0 60 32 4a bd 4e 7a b8 bd 86 8f d1 3c c2 be d3 3c
       -0.049364448 -0.09007703 0.025581133 0.025847796
0003e0 7e fb a7 3d 8c 35 fe 3c 4a 48 a8 3d 55 9c 6f 3d
       0.08202265 0.031031393 0.08216913 0.0584987
0003f0 fc 65 3e 3d 69 36 70 bd 67 e4 54 bd ce 29 36 3c
       0.04648398 -0.05864564 -0.051975634 0.011118365

state_encoder.obj_encoder.model.2.bias f4 [100]
000000 62 b2 19 3e e9 ab c8 3d 61 98 96 3c 4f db 29 bd
       0.15009454 0.09798414 0.018383207 -0.041468915
000010 15 0d fe 3c 9d 80 ce bd 5b 81 6d bd 16 47 6b 3d
       0.031012097 -0.10083125 -0.05798469 0.05744084
000020 c7 57 5c bd 2c 93 53 bd 3b 4e 1d 3d 09 e8 d9 bd
       -0.05379465 -0.051654026 0.038404685 -0.1063996
000030 df 0e cf bd 72 f3 07 be 35 b2 31 bd fe 69 61 bd
       -0.10110258 -0.13276461 -0.043382842 -0.055032723
000040 cb 43 a9 3d e5 af e6 ba 30 70 0f 3d b5 68 31 3c
       0.082648836 -0.0017600028 0.0350191 0.010828187
000050 ba 24 86 3d 1e 10 ef 3c 68 81 eb 3d 9f a3 8b 3c
       0.06549974 0.02918249 0.11499292 0.017045794
000060 bd 06 74 bd e7 16 92 3d 68 27 7c 3d b3 b4 99 3d
       -0.05957674 0.071332745 0.06156102 0.07505169
000070 39 4c a8 3d e2 5d 22 bd 18 51 a2 3d 10 a9 88 bc
       0.08217663 -0.039640315 0.07925624 -0.016682178
000080 f6 8a 96 3d 4b f4 bd 3d 3c 92 87 bd de 98 97 bd
       0.073507234 0.09275111 -0.06619689 -0.07402204
000090 59 77 0c 3c 2c 18 35 3d a0 e4 53 3d 86 c9 2e bd
       0.008573377 0.044212505 0.051731706 -0.042672656
0000a0 8e e4 2d bd 29 d3 00 3d 82 14 92 bc 04 3a 5b bd
       -0.042454295 0.031451378 -0.017832045 -0.053522125
0000b0 74 a1 b3 bd 52 b0 08 3d 4a 8b 18 be 65 81 86 3d
       -0.08771029 0.033371277 -0.14896885 0.06567649
0000c0 0d 22 a7 3d e5 5b d9 3d 54 1b bf bd 27 60 16 bd
       0.081607915 0.106132306 -0.09331384 -0.03671279
0000d0 ee ed 02 be cb 5e e9 bd eb 66 e5 3d b3 81 ad bd
       -0.12786075 -0.113950334 0.11201271 -0.08472004
0000e0 a8 87 c9 3a 29 d8 6e bd 23 cd 99 3c c6 d6 09 3d
       0.0015375512 -0.058311615 0.018774575 0.03365209
0000f0 30 1e 7a bd d5 13 78 bd 18 c8 b4 3d f0 9f cb bd
       -0.061063945 -0.06056579 0.08827227 -0.09942615
000100 3f 5c 8f bc 49 bd 7d 3c 73 38 82 3d 5d a1 cd bd
       -0.017500041 0.015487024 0.06358423 -0.10040543
000110 94 d9 95 bd a8 f5 9e bd 7c 0e 65 bd a8 c8 26 be
       -0.0731689 -0.07761699 -0.055922017 -0.16287482
000120 c6 3e c7 3c 9f e8 e9 3c 5a 03 42 3b f9 a1 d5 bc
       0.024321925 0.028553305 0.0029604048 -0.026078211
000130 09 b2 1e bd a5 91 02 3e 3c c2 ff 3c 4a a7 98 3d
       -0.038744006 0.12750871 0.031220548 0.07453783
000140 c0 22 04 bd 4c e1 e2 3d b4 bb d2 bc fc df a4 bd
       -0.032259703 0.11078128 -0.02572427 -0.08050534
000150 cf d7 d9 bc 55 11 85 bc 0d 84 9b 3d 75 47 0a 3d
       -0.026592163 -0.016243616 0.07593546 0.033759553
000160 21 c6 2f 3c b5 f7 06 bd e1 79 64 bd 76 d2 0e 3d
       0.01072839 -0.032951076 -0.055780295 0.03486868
000170 9e 9b 07 3e b2 8c 3a bd 48 36 03 be 89 d0 b5 bc
       0.13242957 -0.045544334 -0.12813675 -0.022194164
000180 7f c6 0e 3d b9 41 3e bc 9e c3 89 bc 5a b2 5d 3c
       0.03485727 -0.011612349 -0.01681691 0.013531292

state_encoder.relation_encoder.model.0.weight f4 [120, 16]
000000 a2 5e 3c bc 64 3f 00 be 11 d8 51 be 6e 85 46 be
       -0.011497172 -0.12524182 -0.20492579 -0.19386837
000010 83 25 99 3e ef 67 56 3e 91 3a aa be ac e7 57 be
       0.29911432 0.20938085 -0.33247808 -0.2108447
000020 d9 5e a8 be 5e 8c d5 bd 23 c9 55 3e a6 f5 14 be
       -0.32884863 -0.104271635 0.20877509 -0.14546832
000030 46 f8 8d 3d b3 26 3d bd e6 db 86 be 2e 68 0c be
       0.0693212 -0.046179485 -0.26339644 -0.13711616
000040 14 f9 ad 3d d6 72 c1 bb 4a 6b 6d bd 46 43 84 3e
       0.084947735 -0.005903582 -0.057963647 0.25832576
000050 b2 15 11 3e 34 d5 08 3e 69 cb 9d bd 7a 7d 6a bd
       0.14168432 0.1336258 -0.07704813 -0.05724857
000060 80 de 9b bb fc 88 8b be d4 27 a9 bd 00 3b 3b 3e
       -0.0047567487 -0.27252948 -0.0825955 0.18284225
000070 cd 10 46 be d2 ea 70 3d 29 f5 37 be d9 b5 80 be
       -0.19342346 0.058817692 -0.17964615 -0.2513874
000080 00 c8 8e 3c 77 99 07 3e 09 3d 3d bc a5 2f 5b be
       0.017429352 0.13242136 -0.011550196 -0.21404894
000090 2e 13 f8 bd 23 68 a7 3d fc c2 3e be 30 65 06 3d
       -0.12113033 0.081741594 -0.18629068 0.032811344
0000a0 e7 be 8f 3e e8 27 ef bd 29 eb 1f 3c 10 f9 3d be
       0.28075334 -0.116775334 0.009760656 -0.18552041
0000b0 f0 3d 72 3e 14 47 48 3e 4b 95 32 3e a9 7a 09 be
       0.2365644 0.19558364 0.17439763 -0.13425697
0000c0 b4 b4 64 be 91 d8 88 be c6 01 0f 3e 73 f7 2b bd
       -0.22334558 -0.26727727 0.1396552 -0.041984033
0000d0 42 e1 4d 3d f0 f3 1f be 24 f6 9e be 88 41 1b 3d
       0.05026365 -0.15620399 -0.31047165 0.037904292
0000e0 8c 1c 32 3e 3a 4d 1d be 18 7c 33 3d b4 1b 70 3e
       0.17393702 -0.15361491 0.043819517 0.23448068
0000f0 1c 32 f0 3d 2a 4f e8 3d 0f 1b 78 be 15 e1 41 3e
       0.117283076 0.11343224 -0.24229072 0.18933518
000100 f7 d8 d4 b9 70 f4 e0 bc c2 fe b0 3e a5 62 94 3e
       -0.00040597442 -0.027460307 0.34569365 0.2898151
000110 eb 24 20 3e 24 b5 05 3e df 08 04 3e 7e 4a 50 be
       0.15639083 0.13057381 0.12894009 -0.20340917
000120 ad dd 92 be a1 c1 0f bd 0b 60 06 be 20 6c 0c 3d
       -0.2868475 -0.03509677 -0.13122575 0.034282804
000130 31 e3 02 be e7 61 6a be 2c 02 a3 3d 1f b6 87 be
       -0.12781979 -0.2288891 0.079593986 -0.26506135
000140 c2 46 65 3e 9f b3 da 3e 10 4d 57 3d 84 77 59 be
       0.22390273 0.42715165 0.052563727 -0.21236998
000150 5f 0c 44 3d 7a a2 60 3e 34 57 12 3e 9c 3a 9e bd
       0.04786336 0.2193698 0.14291078 -0.077260226
000160 d1 6c 5d be 56 97 7f bd e7 d3 1c 3e 25 24 84 bc
       -0.21623541 -0.062400185 0.1531521 -0.016130516
000170 1c d2 2b 3d 3d 7e 27 3e d3 82 ed bd 01 13 0f 3c
       0.041948423 0.1635675 -0.11597218 0.008732558
000180 b6 4e 5d 3e e2 c3 83 be 20 3b b3 bd 20 8c 45 3e
       0.21612057 -0.25735384 -0.087515116 0.19291735
000190 ad 94 07 be 78 cb 8a be fb fd 9a 3d e8 35 2b 3e
       -0.13240309 -0.2710836 0.07567974 0.16719782
0001a0 8c 41 36 bb 7b 8e 93 bd 4d 8b b9 bd 5e 00 47 3d
       -0.0027810065 -0.0720491 -0.09059773 0.048584335
0001b0 25 95 c6 bc 83 f7 8d 3e 45 44 21 be 60 3c 7e 3e
       -0.02424104 0.277279 -0.15748699 0.24827719
0001c0 bf 82 06 be 79 8e 25 be be 1c 31 bb 9f b4 a7 3e
       -0.13135813 -0.1616763 -0.0027025188 0.3275499
0001d0 dc 79 a9 bc c2 a5 02 3d 7d 4d 80 be 55 1f b9 bd
       -0.02068799 0.03189636 -0.2505912 -0.09039179
0001e0 1e 80 d0 3d db a2 5a be 80 97 af bd 85 6c 5b bd
       0.101806864 -0.21351187 -0.08573818 -0.05357029
0001f0 cb 77 2b 3e 55 ed f2 bd d6 a7 03 3e f4 92 49 3e
       0.16744916 -0.11861674 0.12856993 0.19684964
000200 71 ca 69 3d e5 59 43 be b5 52 cd be d4 cb 63 be
       0.05707783 -0.19077261 -0.40102163 -0.22245723
000210 66 33 20 be 00 06 d8 be ae 1d 27 bd 60 24 f0 bd
       -0.15644607 -0.42192078 -0.04079979 -0.11725688
000220 aa 5e 51 3e d1 01 7c 3e 37 6e 49 be 16 48 a0 bd
       0.20446268 0.24610068 -0.1967095 -0.07826249
000230 1f cc 1c 3e 71 bb 6a bc 51 e8 0d bb 28 02 06 3e
       0.15312241 -0.014326916 -0.0021653364 0.1308676
000240 f0 35 4b bd 2a e6 2a bf 8d f3 29 3a 63 4d a2 be
       -0.049611986 -0.6675745 0.000648313 -0.31699666
000250 3e 04 a3 bc dc 2b a5 3e fa 58 cb bd 34 4a f5 bd
       -0.019899484 0.32260025 -0.0992908 -0.11977044
000260 40 d3 88 be 16 f5 fe 3b a6 90 57 3e 94 cc 93 be
       -0.2672367 0.0077806814 0.21051273 -0.28867018
000270 ad 1e 67 be 33 56 61 3e 41 91 3c bd 0f ee 41 bd
       -0.22570296 0.22005539 -0.046036962 -0.04734617
000280 46 6f 20 3e fd c1 fb 3d 60 95 ce 3e fc 0e cf 3d
       0.15667447 0.1229286 0.4034834 0.1011028
000290 7b bc 98 3d 8d 0e 4d bf a7 9d 93 be be 50 69 be
       0.07457825 -0.8010033 -0.28831217 -0.22784707
0002a0 5e 6e 3f be cd 1b 43 3e 5a d0 54 bd 9d 4f 03 be
       -0.18694445 0.19053574 -0.051956512 -0.12823339
0002b0 cd c5 28 be 07 00 7d 3e 2d 07 37 3e a5 a3 7d be
       -0.16481705 0.24707042 0.17873831 -0.24769457
0002c0 94 58 44 3d be 6f aa 3e 00 74 26 bf 83 69 14 3e
       0.047936037 0.33288378 -0.6502075 0.14493375
0002d0 65 29 d7 bd 42 76 08 be 52 83 a7 bc d8 82 bf 3d
       -0.10505942 -0.13326362 -0.02044836 0.09351128
0002e0 d0 98 85 3e 64 dd 93 be df b3 44 be 2b dd de bd
       0.2609315 -0.28879845 -0.1920924 -0.10882028
0002f0 14 02 22 3e 48 8c 94 3d a5 c6 97 bd 9f 1f 81 ba
       0.15821105 0.07253319 -0.07410935 -0.0009851343
000300 48 5f 5c 3e af a6 0c bd 42 3b 1c 3d 69 2e 99 3b
       0.21520722 -0.03433865 0.03814245 0.004674722
000310 01 aa 6e be 62 c7 1e 3e 3a 6e 08 be 4b 82 07 3d
       -0.23307039 0.15505746 -0.13323298 0.03308324
000320 f7 2d 8d 3e dc 74 7a be 3f 83 0c bd 55 1f 0d 3d
       0.2757413 -0.24458641 -0.034304854 0.03445371
000330 05 25 37 3e b9 4b 09 3e 02 af bd bd fd 9d 5d 3e
       0.17885216 0.13407792 -0.09261896 0.21642299
000340 fa ea 02 be 40 b3 9b be 80 03 dd be 00 f8 45 3d
       -0.12784949 -0.30410194 -0.43166733 0.048332214
000350 10 6d 87 3d 81 0b 5b 3e 89 0a d6 bb 5a a3 41 be
       0.06612599 0.21391107 -0.0065320176 -0.1890997
000360 ed c7 a5 3e 08 f6 48 be 2b 17 31 3e 16 77 47 bd
       0.32379094 -0.19625103 0.17293994 -0.048697554
000370 68 21 a6 be 30 ec 20 be 3c d3 f8 3d 74 81 17 3e
       -0.32447362 -0.15715098 0.12149665 0.14795476
000380 ed 1d ac 3d 7e 87 44 3d 1a 3f d6 be 57 ba 09 3e
       0.084041454 0.047980778 -0.41845018 0.1344999
000390 a0 29 2d be b4 ab f8 3b 28 e4 60 3d ac 6f 91 3d
       -0.1691041 0.007588828 0.054905087 0.07101378
0003a0 ba 09 5d be ef ab 70 3d 22 e0 ae bd 44 54 49 be
       -0.21585742 0.05875772 -0.08538844 -0.19661051
0003b0 24 b4 9f bd d0 33 12 be 87 fa f6 3c f0 67 31 3e
       -0.07798031 -0.14277577 0.030148758 0.17324805
0003c0 18 4e 29 3e 3d 04 a8 3d 47 66 0b 3e 0b 33 c4 be
       0.16533697 0.082039334 0.13613234 -0.38320193
0003d0 49 56 fa bd 54 a3 6b 3d f8 dd 22 3d 1a b4 33 be
       -0.12223489 0.05752881 0.039762467 -0.17549172
0003e0 e5 4d af be 82 d6 7e 3e 75 8a 17 bc 65 8e bc 3d
       -0.34239116 0.24886516 -0.009249319 0.09206847
0003f0 f5 f2 00 be 7e 20 24 3e 68 15 0e be 01 0d 0d be
       -0.12592681 0.1602802 -0.13875353 -0.13774492

state_encoder.relation_encoder.model.0.bias f4 [120]
000000 5f 33 1c be 7f 5d ca bc 78 02 6d bd 98 f7 52 3e
       -0.15253972 -0.024702786 -0.057863683 0.20602262
000010 32 55 3b 3e 17 6c 52 3e 70 b1 51 3e 80 ee 3c 3e
       0.18294218 0.20549046 0.20477843 0.18450356
000020 5c 19 51 be 70 dc 2a be 7f bb 25 3d 31 30 30 be
       -0.2041983 -0.16685653 0.040462013 -0.17205884
000030 86 d6 40 3d c4 47 80 be 71 25 eb bb 78 69 88 bd
       0.047079585 -0.25054753 -0.007176094 -0.066607416
000040 db 7b 5d 3e de 47 fc 3d cb bf 5c 3e 7b c1 5c bd
       0.21629278 0.12318395 0.21557538 -0.053895455
000050 9e 7c 15 be cd ac b9 bd 5e be 45 3e ec 7f 1f 3d
       -0.14598319 -0.09066162 0.193109 0.038940355
000060 b2 3c b7 3b 31 fc 85 3c a2 ba 20 3e b2 61 cf 3c
       0.0055919522 0.016355606 0.15696195 0.02531514
000070 86 ca 84 3d 84 61 5e be f9 30 1b 3e c3 a8 06 3e
       0.06483941 -0.21716887 0.151554 0.13150315
000080 ca a5 1c 3e d3 15 60 be 75 e9 7a be 61 72 14 be
       0.15297619 -0.21883325 -0.2450312 -0.14496757
000090 99 79 2d 3e 97 49 e6 bd a0 c2 73 be b7 1b 4a 3e
       0.16940917 -0.11244505 -0.23804712 0.19737135
0000a0 c0 83 99 bd a8 9a 5f be 8b 81 29 3e e5 f5 58 3e
       -0.074958324 -0.2183634 0.16553323 0.21187551
0000b0 35 66 2b be 0f cd a0 bd d9 d7 58 3e 8e 07 fa 3d
       -0.16738208 -0.07851612 0.2117609 0.12208472
0000c0 e1 db 34 3d 06 16 72 3d 95 98 1d be 78 c6 3a 3d
       0.044155005 0.059103034 -0.15390237 0.04559943
0000d0 b0 7a c1 bd 0f 91 42 bd 68 c0 8d 3d 23 a0 1a be
       -0.09447229 -0.04750162 0.06921464 -0.1510015
0000e0 0a ac 1a be 41 86 19 be c0 cc 58 be 14 91 07 be
       -0.1510469 -0.1499262 -0.21171856 -0.13238937
0000f0 05 96 eb 3c a5 7a 38 3e 99 2d 26 3e 8e 70 18 be
       0.028758058 0.18015535 0.16228332 -0.14886686
000100 a2 6d e0 bd 5f 19 1c bc 6a d4 80 bb 3e 4f 51 3d
       -0.10958411 -0.009527533 -0.0039315717 0.051100962
000110 52 0f 89 3d 85 22 61 3e aa fb 92 be b5 ba 7b bd
       0.06692375 0.21985824 -0.2870763 -0.061457355
000120 2a 5c 0f be e4 fb 1a 3e cf a1 5e 3e 34 bd 3a be
       -0.14000002 0.15135151 0.21741413 -0.18236238
000130 7b cc bd 3d df 36 55 be f5 ba 0f 3e 15 5f 6a bc
       0.09267517 -0.20821713 0.14036162 -0.014304896
000140 20 d9 82 bd 8c b7 0f be 54 fb bd bd 62 a5 51 3e
       -0.063890696 -0.14034861 -0.09276453 0.20473245
000150 95 54 1e 3e 44 a2 d3 3d 05 65 41 be 17 72 00 3d
       0.15461953 0.10333684 -0.18886192 0.031358805
000160 69 f8 f1 bd 16 66 be 3d f6 ae 04 3e c9 84 a2 bd
       -0.118149586 0.09296815 0.12957367 -0.07935483
000170 4d e4 3a be 91 a9 f2 3d 26 66 f5 3d ac f6 58 be
       -0.18251152 0.118487485 0.11982374 -0.21187848
000180 c5 7a 84 3d 89 57 8f bd 51 24 88 bd 13 5d 34 3e
       0.06468729 -0.06999118 -0.06647552 0.1761363
000190 aa 21 78 3e 9a db 86 bd b7 66 0d be a3 22 00 be
       0.24231592 -0.065848544 -0.13808714 -0.12513213
0001a0 e7 cd 36 be 86 db 20 3d 8e d6 29 be 16 09 ce bd
       -0.17851983 0.039271854 -0.16585752 -0.10060327
0001b0 57 0c 46 3e 80 3d 59 be 9b 0d 47 3e 94 fc 3a 3e
       0.19340645 -0.21214867 0.19438784 0.18260413
0001c0 83 33 f6 bd a8 b6 94 3d 3f 73 61 be 5c 05 90 be
       -0.12021544 0.072614014 -0.22016619 -0.2812909
0001d0 9e 8e 4d be 6f 36 01 be cd 2e 1a 3e a1 2f af 3d
       -0.20073935 -0.12618421 0.15056916 0.08554006

state_encoder.relation_encoder.model.2.weight f4 [120, 120]
000000 90 0d fb bd e2 bb 00 be b1 4b 38 3c f7 3c 9b bc
       -0.12258446 -0.12571672 0.011248515 -0.018949969
000010 f4 0f a6 bc b9 66 7d 3d 93 8b 4c bd 3f 5c d8 bd
       -0.020271279 0.061865542 -0.049937796 -0.105644695
000020 3a 95 22 3d a3 d5 a5 3d dc d9 d1 3c f5 85 21 be
       0.039693095 0.080973886 0.025616579 -0.15773757
000030 36 ab 3a 3d d1 f8 b8 bc 92 d7 66 bd a1 c2 0f 3d
       0.045573436 -0.022579582 -0.056357928 0.035097722
000040 4d 54 c6 bd d9 7a 40 bd fd ab 44 bd 4b 62 70 be
       -0.09684048 -0.046992157 -0.048015583 -0.23474996
000050 c6 16 a2 bd 89 42 9a 3d 03 25 07 be 3a a0 90 3d
       -0.079145 0.07532222 -0.13197713 0.07061811
000060 82 0d cb 3b 61 8a c7 bd c3 e9 a7 3d 0a 40 de 3c
       0.0061966786 -0.097431906 0.081988834 0.027130146
000070 4a d2 b7 bb c3 51 70 bd e1 72 c3 3d 1f 26 01 3e
       -0.005609785 -0.058671724 0.09543396 0.12612198
000080 91 f1 2f bd 0f 72 05 3e 76 57 5c 3c 1f 72 76 3b
       -0.042954985 0.13031791 0.013448587 0.0037604643
000090 8c 32 85 3d c7 70 69 bd 16 f8 60 3b 98 a7 a0 3a
       0.06503782 -0.05699232 0.0034327558 0.0012256978
0000a0 5e d6 27 bd 28 a9 ec bc cc 38 fd bd 99 4c a5 3d
       -0.04097592 -0.028889254 -0.12364349 0.080712505
0000b0 27 a8 d3 bc ee a8 03 3e 4f d0 51 be 08 84 54 3d
       -0.025837017 0.1285741 -0.2048962 0.051883727
0000c0 28 6f 0d 3e 8f 17 12 be a9 d1 17 3c c0 a4 15 3d
       0.13811934 -0.142668 0.0092662955 0.03653407
0000d0 89 1c b5 bd 93 1b 83 3c c3 71 df bd bd ec a4 bb
       -0.08843333 0.01600436 -0.1091037 -0.005033104
0000e0 64 7a 24 bd 8c 05 6a bc 74 93 c7 bc c2 00 fa 3d
       -0.040155783 -0.014283549 -0.024362303 0.12207176
0000f0 3d 5b c7 3d bb ee 32 bd 51 d1 11 bd 96 4e 63 3d
       0.09734199 -0.043684702 -0.03560001 0.055494867
000100 a3 ee 9b bd e1 5e ae 3c c8 c1 24 be 5c 0a 8b 3d
       -0.07613876 0.021285476 -0.16089547 0.06789085
000110 ca dd 18 3e 96 43 6f 3d df ab 5c bd 9c 09 73 bc
       0.14928356 0.058414064 -0.053874847 -0.014833834
000120 de 8a 1b 3d 02 41 88 bd cc 67 04 3d bf f3 79 bb
       0.03797423 -0.06653024 0.03232555 -0.0038139669
000130 a0 18 5f 3d d5 dc fd 3c aa c1 f4 bd 50 ae ce bd
       0.054466844 0.03098909 -0.11951001 -0.10091841
000140 c2 c5 43 3c ab 31 16 be 3b 58 e4 bc 0b 06 a6 3d
       0.011949005 -0.14667384 -0.027874103 0.08106621
000150 31 25 50 3c d2 8d fe bc 98 d7 c8 3d d9 06 a0 bd
       0.01270418 -0.031073485 0.09806746 -0.07813806
000160 76 4c e4 3d 1f a1 c4 3d 6e 93 ff bc 8a c3 a2 bc
       0.11147396 0.09601044 -0.03119823 -0.01986863
000170 cf 2d 3d bd 72 99 45 3d f4 f5 0b bd e5 c0 50 3d
       -0.046186265 0.04824204 -0.034170106 0.05096521
000180 a9 16 90 bd 3f f8 09 bd 77 d1 94 3d fb e9 8b bb
       -0.07035572 -0.03368401 0.07266515 -0.004269836
000190 7a cb af 3d db c5 99 3c 56 f0 a5 3c cd dc ea bd
       0.08583732 0.018771103 0.020256203 -0.11467896
0001a0 4f 95 4b 3d ef e4 2f 3d 4c 29 9e bc b2 65 63 3d
       0.04970294 0.042942937 -0.019306801 0.055516906
0001b0 5e 32 87 3d ff af f2 3d 8e 28 0e be 2e 51 94 3b
       0.06601404 0.11849975 -0.13882658 0.004526279
0001c0 88 61 9a bd f4 31 44 bd 8a d8 b9 3c 71 8c c5 be
       -0.07538134 -0.0478992 0.022686262 -0.3858371
0001d0 d9 59 a3 3d a6 d8 a2 bd 79 dd 55 be 21 55 95 bb
       0.079761215 -0.07951479 -0.20885266 -0.0045572673
0001e0 b5 ca 9f bc 9d f7 76 bc f9 3a 7c bd 5d d5 12 3d
       -0.019505838 -0.015073684 -0.06157968 0.03584801
0001f0 43 06 ce bd 71 f0 9b bc 3a 1c 13 3d 1f 99 db 3d
       -0.10059788 -0.01903555 0.03591559 0.10722565
000200 c8 ce a3 bd f3 3e 0b 3d 7c dc e2 3c d8 47 1a 3d
       -0.07998425 0.03399558 0.027693026 0.03766617
000210 58 91 15 3d 39 04 6e 3d b2 72 eb 3c 2e 7b 0b bd
       0.036515564 0.058109496 0.028741214 -0.03405302
000220 a8 01 44 3d 2c 39 14 bd db cd 7e 3c d4 c9 f0 bd
       0.047853142 -0.036187336 0.015552009 -0.11757246
000230 dc 79 f3 bd c5 80 0c bd da 96 d0 3d 83 65 e4 bc
       -0.11888477 -0.03430249 0.10185023 -0.027880436
000240 2b 51 4b bd 39 79 7e 3d 08 12 19 3d cc 5c 8a bd
       -0.049637955 0.062127326 0.03737071 -0.06755981
000250 a7 de de bc 4d 38 6a bd 56 37 fc bc 8b 9c a5 bd
       -0.027205778 -0.0571826 -0.030788105 -0.08086499
000260 5c 03 93 3d 06 36 20 be 9b 4c a6 3d f9 30 61 3d
       0.07178375 -0.15645608 0.0812008 0.054978345
000270 68 64 87 3c d6 5d 0a bc a7 47 f1 bc 76 8d 75 3d
       0.01652737 -0.008445224 -0.029453112 0.05994936
000280 75 f8 9d bb 4b 00 d3 bd c9 5b 9b 3d 70 b0 36 bc
       -0.004820878 -0.1030279 0.07585866 -0.011150464
000290 3a ff 3f 3d c5 b2 bc 3b ef 97 6a 3d 5c 5c 9c 3d
       0.046874262 0.0057586157 0.0572738 0.07634804
0002a0 03 51 f5 bd e5 46 6e 3d 57 3f 44 3d 37 ff 41 3d
       -0.119783424 0.05817308 0.047911968 0.047362532
0002b0 5a 9a 93 3d b8 2c 3f 3d 39 10 fb bc 84 70 ca bd
       0.072071746 0.046673506 -0.030647384 -0.09884742
0002c0 59 68 27 3d 58 0e 04 be 75 27 82 bc 4c 7b 85 3c
       0.040870998 -0.12896097 -0.015887955 0.016294144
0002d0 7c 00 2d bd 17 73 8f 3c e6 64 43 bd 88 02 c9 bd
       -0.04223679 0.017510934 -0.047703646 -0.09814936
0002e0 d2 bf da 3d 69 19 40 bd 96 e0 a6 bd e9 b4 a8 3d
       0.10681118 -0.046899233 -0.08148305 0.08237631
0002f0 4d 01 22 3d 0c ef 2f 3d 8a f3 62 bc 4c 92 dd 3b
       0.03955202 0.042952582 -0.01385201 0.0067618247
000300 77 eb 55 be 07 19 93 3d fa db 29 3d 73 b6 a3 bb
       -0.20890604 0.07182508 0.04146955 -0.004996115
000310 c0 9b 49 3c 2d 40 e7 3c e5 39 03 3d a6 fc 36 3d
       0.0123052 0.028228844 0.032037634 0.044674538
000320 03 bb dd 3d 52 42 bf 3c 6e 5b 0a bd f3 20 1a 3d
       0.10826685 0.023347054 -0.0337786 0.03762908
000330 6e c5 5e 3d 6d 09 d3 3d 5d 1d cb 3c 89 1e 26 bd
       0.054387502 0.10304532 0.024794275 -0.040556464
000340 4d 09 4f bd 61 38 77 3d 3b 89 ca bd a5 0e 2a bd
       -0.05054598 0.0603565 -0.09889456 -0.041517872
000350 cc 42 04 be 47 15 c1 3d 06 e9 30 bd d6 4c 09 be
       -0.12916106 0.094278865 -0.04319098 -0.13408217
000360 d3 51 60 bd 89 aa a8 bd 60 db 26 bd 50 ce eb 3c
       -0.054765534 -0.08235652 -0.040736556 0.0287849
000370 9e c1 46 bc b7 77 72 bd 0b 65 6f 3c fa 24 2c bd
       -0.012131123 -0.0591962 0.014611493 -0.04202745
000380 ea d0 97 bd 34 43 fe 3c a7 ee 7e bd c7 7b a5 bb
       -0.07412894 0.031037904 -0.062239315 -0.005050156
000390 0f 7f 6a 3d 64 3d 23 be d4 80 ba 3d 68 dc b4 3c
       0.05725008 -0.15941387 0.09106603 0.022077754
0003a0 68 24 f7 bd db fe 9d 3d e2 e2 18 bd 8a 91 c5 bd
       -0.12067491 0.077146254 -0.037325747 -0.096469
0003b0 a3 17 78 bd 84 2d ab bc 16 08 30 3d 4b c5 79 3c
       -0.060569417 -0.020895727 0.04297646 0.015244792
0003c0 67 0f b9 3d 13 9f c7 3b 4c 0b 82 bb 81 7f 65 3d
       0.09036141 0.006091961 -0.003968632 0.0560298
0003d0 77 01 00 bc c6 f3 93 3d 2a a1 07 3d a2 9d d6 bd
       -0.007812849 0.072242305 0.033112682 -0.10479285
0003e0 66 88 ae 3d 27 c0 e2 3c 32 29 89 bc cd 48 0d 3e
       0.0852211 0.027679516 -0.016743276 0.13797303
0003f0 60 7b 6c 3d 8e 5e 0d 3c af 90 89 bd d2 f1 61 bd
       0.057734847 0.008628501 -0.06717049 -0.05516226

state_encoder.relation_encoder.model.2.bias f4 [120]
000000 9d cf b0 3d d1 d6 4d bd 43 5f bb b8 13 2c 68 3d
       0.08633349 -0.050253693 -8.934599e-05 0.056682657
000010 d0 ab b1 bd 0a b5 2f bd bb bb 45 bd 57 7d 2a bd
       -0.08675349 -0.04289726 -0.048274737 -0.04162344
000020 07 de 33 3d 40 83 a6 3d 26 4b ae bc 31 0e 36 3d
       0.043912914 0.08130503 -0.021276068 0.044447128
000030 40 3d bd 3d 5c 78 9b bc 0b bc 5a bd df f7 97 3b
       0.09240198 -0.01897829 -0.053401988 0.004637703
000040 90 a1 be 3d d2 42 a4 3d 11 5a ab 3d e0 3d 63 bd
       0.09308159 0.080205575 0.08366788 -0.05547893
000050 66 2c 9e bc f2 84 25 3d da 8e cb 3c ec da 04 3d
       -0.01930828 0.04040999 0.02484839 0.032435343
000060 23 7a 99 3b 49 b0 3c bd 7f 46 ed 3c e3 3b aa 3c
       0.0046837493 -0.046066556 0.02896428 0.02078051
000070 60 ff ab bc e2 9e 9f 3b 8b 64 5d bd 62 0e 07 bd
       -0.020995796 0.004871235 -0.054050963 -0.0329727
000080 c0 44 8f bd be ea 39 bb e1 21 d1 bd 5e 7f 94 bc
       -0.06995535 -0.0028368677 -0.1021154 -0.01812714
000090 d7 d1 bb 3d 36 e7 07 bd 79 eb b4 3c cb 88 8e 3d
       0.09170883 -0.033179484 0.022084938 0.06959685
0000a0 c2 cf 17 bd 2d 16 1a 3d e0 67 93 bc 21 d9 24 ba
       -0.037063368 0.037618805 -0.017993867 -0.0006288458
0000b0 23 12 e8 3d c8 09 39 bc 6f d3 22 bd 94 09 3b bd
       0.11331584 -0.011293836 -0.03975242 -0.04566343
0000c0 ae 37 84 3d 8a b3 67 3d bb 48 c9 bc d7 08 d8 3c
       0.064559326 0.056567706 -0.024570813 0.026371403
0000d0 78 4a 3d bd c3 5c 03 bd bc 14 9d bd fc 9f 65 bc
       -0.046213597 -0.032070886 -0.076699704 -0.014015194
0000e0 dd 3d 55 3d e7 6a 17 bd d9 54 38 bd 1b 50 aa 3d
       0.05206095 -0.036967184 -0.045002792 0.0831606
0000f0 7d 6d 04 3c 30 11 76 bd ae d2 24 bc b8 97 bb 3d
       0.008082745 -0.060074985 -0.010059996 0.091597974
000100 97 d6 a8 3c 64 0f b7 3b 10 89 c9 bb 67 e3 a5 3d
       0.020610137 0.0055865515 -0.0061503723 0.08100014
000110 97 99 83 3d 02 15 85 3d 52 6d 84 bc f5 66 35 bd
       0.06425779 0.064981475 -0.01616541 -0.04428764
000120 4a 9b 86 3d 4c 59 6c 3d fb 80 17 bd 7c 63 7d 3c
       0.06572588 0.057702348 -0.03698824 0.015465613
000130 0a 3a 9e 3d c7 9e 49 bd cd df a6 3d 75 3c e8 bb
       0.07725914 -0.049223687 0.08148155 -0.007087285
000140 d4 61 2b bd 33 b1 7d 3d da 3b 11 3d 3e dd 94 bd
       -0.041841343 0.06193657 0.03545747 -0.07268761
000150 dd 13 ef 3b ff 51 14 bd 63 3d 1a 3c b0 fa 6a bd
       0.007296069 -0.03621101 0.00941405 -0.05736798
000160 5e 56 86 3c 84 03 02 bc d3 5d 08 bd 1f 84 87 3d
       0.016398605 -0.0079354085 -0.033292603 0.06616997
000170 1b 9b 96 3c 61 f4 2f bd 2d 02 27 3d 8c ab 7c bd
       0.018384507 -0.042957667 0.04077356 -0.061687037
000180 f1 61 c5 3b 87 16 1f 3d fa 30 9d bc 44 f7 6f bc
       0.0060236384 0.038839843 -0.019188393 -0.014646355
000190 d3 65 7f bd 93 51 6d 3c 2c 21 4f bc 0f 56 1c bd
       -0.062352967 0.014484781 -0.012642186 -0.03816801
0001a0 85 d7 8b bd b3 19 0a 3d 03 0f dc 3d ba 97 ad 3d
       -0.068282165 0.033715915 0.10745051 0.08476205
0001b0 7c 00 7c bd 4d 78 dd bc 99 e6 79 3d e0 9f 53 3d
       -0.0615239 -0.027034903 0.06101093 0.05166614
0001c0 33 cb c4 bd 6a 6e 1d bc 7b ce b8 3d 89 86 b2 3d
       -0.0960907 -0.009608844 0.09023758 0.08717067
0001d0 c7 5c 70 3c 4b 39 6d bc ab a1 c3 bc 02 e4 7f 3d
       0.014670557 -0.014478992 -0.0238808 0.062473305

state_encoder.relation_propagator.linear.weight f4 [100, 320]
000000 9b db 03 bc 89 36 21 3c 7b 7a 6d bd 23 29 9e 3c
       -0.0080479635 0.009839662 -0.057978135 0.019306725
000010 23 a0 15 bd 48 c9 b7 3b 68 be 1a 3d 91 f6 d4 3b
       -0.03652967 0.0056087114 0.03777924 0.0064991196
000020 87 88 ae bb 8b b9 be 3c 23 2f 31 3d bf 42 88 3b
       -0.005326334 0.023281833 0.043257844 0.0041583474
000030 a2 4a 69 bd c8 f1 3a 3d 99 eb fa 3b 6b 09 ba 3c
       -0.05695594 0.045640737 0.00765748 0.022709569
000040 a0 09 f4 bb ed 0b 06 bd 6f 14 69 bd 7f fa 3e bc
       -0.0074474365 -0.032726217 -0.056904253 -0.011656403
000050 d1 4d 23 3d 2c f7 e8 3c 43 6d a7 3b c4 de 4a bd
       0.039869133 0.028438173 0.0051094606 -0.049528852
000060 f3 7e fd bc 35 10 52 bd 2e 41 46 bd d7 ab e5 bc
       -0.030944323 -0.051284987 -0.048402004 -0.028036041
000070 b8 ea 25 3d 2e a3 b9 bc 9d f3 e6 bc 37 ba be ba
       0.04050705 -0.022660818 -0.028192336 -0.0014551346
000080 3a d3 30 3b c8 7d c4 3c fe 06 ec 3a fa 19 5d bd
       0.002698137 0.023985758 0.0018007455 -0.05397985
000090 15 27 22 3d 52 5c fb 3c e3 07 4c 3d ad 5c 40 3b
       0.039588053 0.03068367 0.04981221 0.0029352114
0000a0 fe 75 3b bd 4b 47 2e 3c 81 4c ad bc 08 0c 2b 3d
       -0.045766823 0.010637115 -0.021154644 0.04175952
0000b0 6f 4c 8d 3c da bb 6c bd 0a ca 63 3c 23 7d 23 3d
       0.01724836 -0.057796337 0.01390315 0.03991426
0000c0 20 14 89 3c 1c ad 15 bc cf 9d a1 bc f7 cc 44 bd
       0.01673323 -0.009135511 -0.01972857 -0.048047032
0000d0 9e 0f a6 bc c1 8a fd 3b 9b 42 14 3d 5f 88 7a bc
       -0.020271119 0.007737488 0.036196332 -0.015291302
0000e0 54 de 1d bd 3b 31 3f bd 65 a0 5d bd c7 a2 52 bc
       -0.038542107 -0.04667781 -0.054108042 -0.012856192
0000f0 24 1a b0 3c 03 7c 00 bc 24 ea 68 bd ab 39 28 bd
       0.02149684 -0.007842067 -0.05686392 -0.04107062
000100 8e 1e 30 bd c4 ff 15 bd 2e b4 11 bd 90 11 dd bb
       -0.04299789 -0.03662087 -0.035572223 -0.0067464784
000110 42 90 2d 3d 0c c8 59 bc 5d ef 5b bd b8 1f 45 3d
       0.042373903 -0.013292324 -0.05369507 0.048125952
000120 d4 be 86 bc 1a ae b6 3b 84 9a 41 3d 6e b2 3c bd
       -0.016448416 0.0055749537 0.0472665 -0.0460686
000130 4a 06 10 3d 20 2c 18 bd cb f5 27 bd 45 3b 90 bc
       0.035162248 -0.037151456 -0.04100589 -0.017606387
000140 3c 51 d4 3c fb be c2 3c fa d9 57 bd 5f 35 94 bc
       0.025917642 0.023772707 -0.052698113 -0.018091856
000150 77 d0 f7 bc 41 06 89 bc dd 27 7e ba c0 f0 53 3d
       -0.030250771 -0.016726615 -0.0009695271 0.05174327
000160 83 bf 4d bc b0 36 03 3c 12 7e 2f 3d 8a a7 4d 3a
       -0.012557867 0.008008644 0.04284484 0.00078450947
000170 ed bd bd 39 31 cb 0c bd 94 7f 80 3c ef ee b0 bc
       0.00036190395 -0.034373466 0.015685834 -0.021598307
000180 b5 88 09 bd 19 a1 b4 3c ff 22 1b bc 34 aa ec b9
       -0.03357764 0.022049474 -0.009468793 -0.0004514024
000190 53 fb f5 bb 6c 48 e3 bc 4b d4 09 bd 01 84 20 3d
       -0.007506767 -0.027744494 -0.033649724 0.03918839
0001a0 70 72 ec 3b fa 6d 9c bc 79 43 1f bd 40 69 4e bd
       0.0072157905 -0.01909541 -0.038882706 -0.050393343
0001b0 f7 18 06 3c c6 27 82 3c 39 f5 50 3d 75 1f 40 bd
       0.008184663 0.015888106 0.051015113 -0.046905
0001c0 ba 5a d8 3c 2e 43 be 3c 14 f5 01 bd 5c 3d d8 bc
       0.02641045 0.023225393 -0.031727865 -0.026396446
0001d0 3c 44 0a 3d ff d5 1d 3d b3 4f 39 bc bc bd 84 3c
       0.03375648 0.03853416 -0.011310506 0.016203754
0001e0 c2 fb 43 3d 7a 2b f2 bc 98 3d 52 3b 45 7c dd bc
       0.047847517 -0.029561747 0.003208017 -0.027036795
0001f0 41 94 a4 3c 90 cc e2 bc 53 7e 86 bb 7f c6 cc bc
       0.020090224 -0.027685434 -0.0041044145 -0.024996994
000200 fc 4c 7d bd d0 ca 9f bc 3c 01 62 3c 76 1c 70 3c
       -0.061840996 -0.019505888 0.01379424 0.014655223
000210 2a d9 89 bb 84 3c 97 3c 4d 7b cf bb 21 ca f1 3c
       -0.004206796 0.018461473 -0.0063318373 0.029515328
000220 d0 f1 51 3c 36 c6 29 3d bb a5 8a bc b4 9a d1 bc
       0.012814 0.041448794 -0.01692473 -0.025586464
000230 80 e1 c0 bc 37 60 6f 3c 45 37 25 3c b9 86 4b bd
       -0.023545027 0.014610342 0.010083978 -0.04968903
000240 85 e4 6e 3c 0b 03 da 3c 3a 90 78 bd 97 a6 e6 bc
       0.0145808505 0.02661278 -0.06068442 -0.028155608
000250 cb 2e d9 bb d2 9c 2d bd d9 0d 48 3d eb 7e 7b bd
       -0.0066278926 -0.042385884 0.04884133 -0.061400335
000260 9e 77 28 3c 7b 27 9c 3a 11 ca f7 3c 30 3b e0 3b
       0.010282425 0.0011913622 0.03024772 0.006842993
000270 f8 91 66 bb dd 3c ed bc 7c c3 00 3d 05 12 e2 3c
       -0.003518222 -0.028959686 0.03143643 0.027596483
000280 d1 fd 46 3c 93 c0 c8 bb 8a 20 a7 bb 4a f1 93 bc
       0.0121454755 -0.0061264723 -0.0051003145 -0.018059392
000290 83 20 17 bd 36 40 07 bc 0e 4e 6e 3c 1f 35 f8 bc
       -0.03689624 -0.008255055 0.014544977 -0.030298768
0002a0 9d 97 17 3d 0c 2a 0c bd d1 6e 8b 3c a9 48 40 bd
       0.037009824 -0.034219787 0.017020615 -0.046944294
0002b0 cc a1 d7 3c 94 17 1a bd 7f a5 11 3d e6 ed 57 bc
       0.026322268 -0.037620142 0.03555822 -0.013179278
0002c0 5d 36 4f bc ff c1 1c 3d b7 13 eb bb a3 16 08 bd
       -0.012647239 0.038270947 -0.007173981 -0.033224713
0002d0 ec e9 17 bd 9e 8f 4c 3d 72 df 46 bd 4e bc 3a 3d
       -0.03708832 0.04994165 -0.048552938 0.045589738
0002e0 ad af 39 3d 10 e5 55 3c 8e e5 5f bd dd b8 05 bc
       0.045333553 0.013055101 -0.05466228 -0.008161751
0002f0 1d 90 b3 bc 16 33 84 bc 6a c3 34 bd f7 74 60 3c
       -0.021919305 -0.01613764 -0.044131674 0.013699762
000300 58 65 c1 bb 40 21 4f bd db 31 eb bc 8c 98 7b bd
       -0.0059019737 -0.05056882 -0.028710296 -0.061424777
000310 fd 63 3a bd 97 fc 09 3c ba 38 1e bd d1 b6 de 3c
       -0.045505513 0.0084220385 -0.038628317 0.027186783
000320 5e 6c 2f 3d 03 08 60 bd e2 4c a3 bb d2 b9 b0 3c
       0.042827956 -0.05469514 -0.0049835304 0.021572981
000330 2c 27 51 bd b1 d9 24 3d 1d 24 17 3c 51 ac 53 bd
       -0.051062748 0.04024667 0.009224919 -0.051678006
000340 e6 65 2b bd 56 7a 28 3d b5 6a ac bc 04 e3 06 bc
       -0.041845225 0.041132294 -0.021046976 -0.008232836
000350 b6 1f 4f ba c3 16 07 3c d1 ce b3 3c 47 12 a9 bc
       -0.00079011486 0.008245173 0.021949204 -0.020638598
000360 62 d7 27 bd 6a 47 4b 3c cd 04 1f 3d 55 aa 33 bd
       -0.04097689 0.012407163 0.038822938 -0.043863613
000370 f6 e5 37 ba 6c a0 c4 bc 3e aa f6 bc e1 71 b0 3c
       -0.0007015163 -0.024002276 -0.030110475 0.021538677
000380 cb 85 2c bd d1 90 ae 3c 92 e2 ee bc 09 e8 22 3c
       -0.042119782 0.021309288 -0.029160772 0.009943017
000390 16 6a e4 3c 3f b9 1a bd 41 62 1e bd b9 11 54 bd
       0.027882617 -0.03777432 -0.03866792 -0.051774714
0003a0 e3 2d ae bc 52 7b db 3a bd 72 8e 3b e4 6e 30 bd
       -0.021262115 0.0016745126 0.004347174 -0.043074504
0003b0 3a 8b 36 3b f4 4e 81 bd f1 c4 f9 3c ca d6 f5 ba
       0.0027853982 -0.06313887 0.030489417 -0.0018756029
0003c0 7f f2 e0 3c 6d e6 ed bc 1b af e4 bc bd 0d 90 3c
       0.027459381 -0.02904054 -0.027915528 0.017584676
0003d0 20 13 16 bd 6c cf 6c bd 02 21 6f bd 4a 27 ce bc
       -0.036639333 -0.057815 -0.058381088 -0.025165219
0003e0 46 a2 22 3b 19 7a a6 bc 20 94 ee 3b c2 41 84 bc
       0.002481596 -0.020321893 0.0072808415 -0.016144637
0003f0 9a 3b 98 bc a1 2e 02 3d d6 16 0f 3d d9 81 21 3d
       -0.018583108 0.03178275 0.034933887 0.039430473

state_encoder.relation_propagator.linear.bias f4 [100]
000000 bd 9b 12 bd 01 4c 2b 3d 49 d8 ca 3c bc 5e 00 3d
       -0.035793055 0.04182053 0.024761336 0.031340346
000010 a0 c4 35 3d ad 13 ce 3c fc d0 c4 bc 36 ea a5 bc
       0.04437697 0.025155867 -0.024025433 -0.020253282
000020 1c 5d e0 3c 78 b3 50 bd db 4e a5 3b 4c ee 20 bd
       0.027388148 -0.050952405 0.0050448007 -0.039289758
000030 75 1c fa 3c 7a ec 84 3c a8 6c e3 bc 28 4e 63 3d
       0.030531147 0.016226042 -0.027761772 0.055494457
000040 f1 71 38 bd ba 82 1f bd 95 e3 e4 3b 52 a1 49 3c
       -0.045030538 -0.03894303 0.0069851377 0.012306528
000050 47 88 78 3d 86 73 58 bd b0 ce 0e 3d 40 2f 42 bd
       0.06067684 -0.052844547 0.03486508 -0.047408342
000060 ad 99 14 3d 10 1b 95 3c de 55 cf bc 93 cb de 3c
       0.03627937 0.018201381 -0.0253095 0.027196681
000070 22 e6 32 bd 6f 3e 31 be 87 b0 85 bc 94 e5 56 3c
       -0.043676503 -0.17308973 -0.016319526 0.013116259
000080 da 70 b5 bc 6d 24 a6 3c e7 1b a5 3d 14 72 75 3c
       -0.022148538 0.020281041 0.080619626 0.014980812
000090 10 0c d6 3c 46 cd 8b bc 4e 76 8f 3d 99 e4 9e 3c
       0.026128799 -0.017065655 0.07004987 0.019396113
0000a0 51 11 c0 3c bc b0 fc bb de c8 86 bc 70 5d dc bd
       0.023445757 -0.007711498 -0.016453203 -0.10760009
0000b0 17 ff 29 bd 79 c7 12 3d 7b 53 9d bc c5 71 ab bc
       -0.04150304 0.035834763 -0.019204846 -0.020928273
0000c0 45 87 81 3d b4 d1 8c bd 97 46 f0 3c b9 db 32 bd
       0.06324629 -0.06875935 0.029330535 -0.043666575
0000d0 9b 20 7d bc 15 9f 7d 3d 8c 96 82 3d e7 cd fd bc
       -0.015449668 0.06191929 0.06376371 -0.030981971
0000e0 fa 7b da 3c 31 7a 12 bc 56 13 7d 3c ec d7 b0 3d
       0.026670445 -0.0089402655 0.015446505 0.08634934
0000f0 a0 ae a6 bc 26 06 b4 bb ad d0 6f bd cc ee e7 bb
       -0.02034694 -0.005493897 -0.058548618 -0.0070780274
000100 de d4 f3 bc 47 8c 73 3d 83 9a 35 3c 6a 43 5c 3d
       -0.029764589 0.05945995 0.011084202 0.05377523
000110 35 29 c1 bc 48 a1 88 bd 9d 7b 43 3d 63 93 42 3c
       -0.02357922 -0.06671387 0.04772531 0.01187596
000120 c3 60 15 3c 0b 76 e6 bc 8f f2 69 bd de 8f 33 bb
       0.009117308 -0.02813246 -0.057116088 -0.0027398984
000130 1a 44 75 3d 3a 74 21 3d c8 17 2f bd 8e c9 68 bb
       0.0598794 0.039417483 -0.04274729 -0.0035520527
000140 9f 18 b5 3d fb 26 ca 3c f4 bc 42 bd ba d1 37 3b
       0.08842587 0.02467679 -0.04754348 0.002804859
000150 01 ac 48 3d 11 e5 50 3d 27 41 0c bd b1 c0 6b 3d
       0.04899216 0.050999705 -0.03424182 0.05755681
000160 7e fa d4 3c a8 a9 b3 3c 57 6d 92 3d 7a fa c7 bc
       0.02599835 0.021931484 0.07149761 -0.024411429
000170 06 7f fd 3c 89 9e ca bd 40 12 c3 3b 99 49 0c 3d
       0.030944359 -0.098935194 0.0059531033 0.034249876
000180 7d b3 d3 3c 33 17 72 bd 44 19 49 3d 5c ab 8c bd
       0.025842423 -0.059104156 0.04909636 -0.06868622
