dump_Swim/train_Swim_CKO_demo/net_best.pth (torch_old, 801093 bytes, 32 tensors)

state_encoder.obj_encoder.model.0.weight f4 [100, 19]
000000 df 7e 87 3d 31 51 a2 3d fd 67 98 3d ae 58 e1 bd
       0.066159956 0.07925642 0.07441709 -0.110032424
000010 f1 ee 03 bc 52 6c ed bc 86 ad a1 3c 39 94 98 bd
       -0.008052574 -0.028982315 0.019736063 -0.07450146
000020 70 65 2e bb a5 01 fc bd 73 d3 c3 bd dd 75 0c 3e
       -0.0026610754 -0.12305001 -0.09561815 0.13716836
000030 c6 18 55 3e ec ea dd 3d 04 3e 06 3e 36 23 aa 3c
       0.20810232 0.108358234 0.13109595 0.020768743
000040 57 b5 2b 3e a8 2c 4b 3d 51 98 4d 3e 08 c1 d8 ba
       0.16768394 0.049603134 0.20077635 -0.001653702
000050 39 9f b6 bb 2b ab a4 bb fd d6 b4 3d 69 da 2d 3e
       -0.00557318 -0.0050252876 0.08830068 0.16977848
000060 5a 88 14 be 02 74 0f be df cd 04 be 2b 02 f2 3d
       -0.14505139 -0.14009097 -0.12969159 0.1181682
000070 c4 4a 3e 3e e6 f1 20 3e 0d 77 ab 3c a5 fb eb 3c
       0.18583208 0.15717277 0.020930791 0.028806517
000080 e9 cb 6e 3c a2 95 c1 3c 5d 33 4b bb f4 ac 13 3d
       0.014574983 0.02363092 -0.0031005957 0.036053613
000090 b7 b8 05 3d a8 b4 f8 3c 53 e1 28 3e 49 7e 1e 3e
       0.03264686 0.030359581 0.16492204 0.15477861
0000a0 b5 0f 1d 3e 3e 52 9e be 1f 4e 98 3e e2 40 96 3e
       0.15338023 -0.3092212 0.29747102 0.29346377
0000b0 57 f2 3d 3e 74 2f 65 be cb 1d 1f be dc 2a 76 3e
       0.18549477 -0.22381383 -0.15538709 0.24039787
0000c0 e6 99 a7 be 0d b1 96 3b c3 30 bb bb 42 c1 bb bb
       -0.32734603 0.004598743 -0.0057126 -0.0057298252
0000d0 21 d9 92 bb 23 4f 7f 3b 5b 79 5c 3b ae 7f 9d bb
       -0.00448145 0.0038957081 0.003364167 -0.0048064804
0000e0 c0 ef a5 3b c7 34 b9 bc a3 54 bb bd d7 52 b6 bd
       0.005063981 -0.022608174 -0.091470025 -0.08902519
0000f0 4b 86 cb 3d 62 8e 34 3d 3b 6e 21 be 72 15 8f 3d
       0.09937724 0.0440811 -0.15764706 0.06986512
000100 77 08 dd 3d 6e ed 35 bd 19 c0 40 bd 6a 03 92 bd
       0.1079263 -0.044415884 -0.0470582 -0.071295574
000110 9e e7 73 be b3 70 98 bd 78 e6 09 3e f5 cb 90 3d
       -0.23818824 -0.07443371 0.13466823 0.07070152
000120 85 08 5e 3e 4f be e5 bc 4b f4 fb bd 08 80 dd 3c
       0.21682937 -0.028044848 -0.123024546 0.02703859
000130 f9 b2 12 3d 30 a7 a7 3d 3b aa b5 3d 2c c1 90 3e
       0.035815213 0.08186185 0.088703595 0.28272378
000140 2e 77 16 3d 47 ee f9 bc 3c d1 8d be 35 c7 02 be
       0.036734752 -0.030509127 -0.27698696 -0.12771304
000150 fa 1b ed 3d ca c4 00 be 99 81 fa 3d 1a e5 c5 3b
       0.11577602 -0.12575069 0.1223175 0.006039274
000160 ee 9d 81 3d cc 4a 37 bc 86 27 a5 3d c1 f3 1b 3e
       0.06328951 -0.011187267 0.08064179 0.15229703
000170 69 eb e9 bd 63 df ec bd 6a 2f 24 bd a0 db 4d 3c
       -0.11421854 -0.11566045 -0.04008428 0.01256457
000180 18 68 70 3c db 52 6b 3c e7 55 b3 bd 1b 29 ba 3d
       0.014673255 0.014363016 -0.08756619 0.090898715
000190 eb c9 5c 3d 8d e2 2e bd 72 ab 98 3d ad 23 3c bd
       0.0539035 -0.042696524 0.074545756 -0.04593246
0001a0 ee f7 26 bd 3a 36 94 bb 7e 96 09 be 57 0a 33 be
       -0.040763788 -0.004523066 -0.13436314 -0.17484413
0001b0 9a 74 19 3e 6a 44 0b be 7b f6 13 be 1f b4 34 3e
       0.14985886 -0.13600317 -0.14449494 0.17646836
0001c0 6b ab ef 3d 90 cf 00 3e 66 6d 32 3d b7 3c 4d 3d
       0.11702617 0.12579179 0.04356136 0.05010673
0001d0 f3 65 07 3d 0e 59 47 be 4a 95 17 3c e8 2f f8 bd
       0.03305621 -0.19467565 0.009251902 -0.121185124
0001e0 17 f0 4d 3e d1 55 19 bd 5b 84 d5 bd 02 13 69 3e
       0.20111118 -0.037435357 -0.104256354 0.22761157
0001f0 69 31 ed 3c fc 85 9c 3d 18 c8 19 3d 05 ee b0 bc
       0.028954225 0.07642743 0.03754434 -0.021597872
000200 51 c1 af bd 0e 83 55 bd 94 87 52 3b 8c 37 4e bd
       -0.08581794 -0.052126937 0.0032124268 -0.050345942
000210 5b e3 98 3c ba f7 12 3e a3 69 af 3d 74 23 b0 3d
       0.018663099 0.14352313 0.085650705 0.08600512
000220 4b 5a 86 3d d6 fd 1f be 13 2f 02 be c3 9b 34 3e
       0.06560191 -0.15624174 -0.1271327 0.17637543
000230 8d 3e 48 bd e2 33 39 be 48 8c 79 bd 6b 52 b7 bd
       -0.048887778 -0.18086198 -0.0609248 -0.08951267
000240 63 86 7f bc 81 01 ae bc 3a 10 85 3c fe 2a 51 bd
       -0.015596005 -0.021240951 0.016243089 -0.05106639
000250 95 42 1c bd fb 73 e4 3c c2 e1 88 bd a8 2b c8 bc
       -0.038149435 0.027887335 -0.06683685 -0.02443488
000260 36 04 91 bd 12 3a 33 bc aa 7f 95 bb 12 3a fc bb
       -0.07080881 -0.010939138 -0.004562338 -0.007697352
000270 4d b2 db 3d f8 06 69 bd 61 0e ec bb cb 1f 66 3d
       0.107273676 -0.05689141 -0.0072038625 0.056182664
000280 af 6f 29 be 83 27 f0 bb 59 f9 e0 3d 67 47 85 3c
       -0.1654651 -0.007328929 0.10985059 0.016269399
000290 27 c9 18 3e 7a bf 95 3e 2a 76 63 be 49 99 00 be
       0.14920484 0.29247648 -0.22213045 -0.12558474
0002a0 86 aa 85 3e 78 bf 66 be 26 31 1c be 90 21 4d bc
       0.26106662 -0.22533977 -0.15253124 -0.012520209
0002b0 7e 2b 13 3e 49 c9 11 3e bd 24 bc 3e 06 de cd be
       0.1437206 0.1423694 0.3674678 -0.40208453
0002c0 07 35 f3 bd c9 1e bb be cf e8 6d bc 4b 28 e0 3e
       -0.118753485 -0.36546925 -0.014520838 0.4378074
0002d0 0e ed 6d be 29 a3 a8 3e 4c fc 63 bb 3f 00 0f 3c
       -0.2323496 0.3293698 -0.0034787832 0.008728086
0002e0 45 1b dd 3b ad 65 83 3b 2c ca 2f bb cf b3 28 bc
       0.0067476355 0.0040099234 -0.0026823385 -0.010296776
0002f0 6c 74 01 3c a5 69 b5 ba ab 3c 83 bd a4 d5 04 bd
       0.007901292 -0.0013840689 -0.06408056 -0.032430306
000300 20 cb e7 bc 8f 7f d3 bc 1c c1 a2 3d 22 17 2e 3e
       -0.0282951 -0.02581766 0.07946989 0.17001012
000310 9b 78 c6 3c bd cc 30 bc a9 65 1a bd 83 34 88 3d
       0.024227431 -0.010791001 -0.037694607 0.06650641
000320 02 b1 1c 3e 5c c5 56 bd 75 da 2e bd 9a 5d 12 bd
       0.15301898 -0.05243431 -0.042688806 -0.035733797
000330 a5 84 ed bc cb 89 1e bb cb 8d 22 bd b5 99 8a bb
       -0.028993914 -0.0024191018 -0.039686006 -0.004229749
000340 5c 74 2d bd 55 b0 84 3d 33 56 75 3d 1f 93 75 3d
       -0.042347297 0.06478945 0.05989666 0.05995476
000350 84 09 be 3c ae 79 23 3d 0d 35 3e bd 69 65 3e bd
       0.023197897 0.039910965 -0.046437312 -0.04648343
000360 23 f9 02 3e e5 5b 08 bd 3c 5c d1 bd e8 91 26 3d
       0.1279035 -0.033290762 -0.102226704 0.04066649
000370 2a b5 8e 3e 3e 90 85 be 38 52 9e be f2 a9 26 be
       0.27872592 -0.2608661 -0.30922103 -0.16275766
000380 86 aa 3a 3e 7a 5d 8d 3e 4c 6d 17 be 97 b3 02 3e
       0.18229112 0.2761038 -0.14787787 0.1276382
000390 5c 9e f2 3c 45 fb ed 3c 23 37 e9 3c 1d cc 0c 3e
       0.029616527 0.029050479 0.028468674 0.13749738
0003a0 18 d6 e9 3c f3 bd ef bd df a2 e7 bd 60 f2 a3 3d
       0.02854447 -0.11706152 -0.11310362 0.08005214
0003b0 52 97 4b be 0e 2e a8 bd bf 35 0b be 60 48 b2 3b
       -0.19881943 -0.08211909 -0.13594721 0.0054407567
0003c0 7c ae 01 3b d3 7b 1d 3c 27 85 2d bc f3 26 69 3c
       0.0019787839 0.0096120415 -0.010590828 0.014230478
0003d0 54 dd eb bc fe eb eb 3a d7 dc 86 bc e1 00 62 bc
       -0.02879206 0.0017999408 -0.016462727 -0.013794155
0003e0 02 5f e6 bc a6 85 72 bc c7 03 ee bc e7 7b d8 bd
       -0.028121475 -0.014802372 -0.029054536 -0.105705075
0003f0 d4 30 1e 3e 0a c2 e3 3d e0 34 6b bd b5 6c 17 bc
       0.15448314 0.111209944 -0.057423472 -0.009242226

state_encoder.obj_encoder.model.0.bias f4 [100]
000000 b1 9f a4 3d 4c 2a 0d 3e 11 87 b5 b8 df bd 61 3d
       0.08038271 0.13785666 -8.655911e-05 0.055112716
000010 f5 e9 44 bd e7 09 96 bb 0f 5b bb be 0f 06 0c bf
       -0.04807468 -0.004578817 -0.3659291 -0.54696745
000020 ed 04 0b be 80 dc 07 be 59 c0 0c bf f7 c2 76 b9
       -0.13576098 -0.13267708 -0.54981 -0.00023533018
000030 38 45 02 bd 25 17 0f be 81 76 8d be a1 5a df be
       -0.031804293 -0.13973673 -0.27629474 -0.43623832
000040 f5 6f 6d be b5 60 ce bd 65 a3 04 3e be c5 3d bd
       -0.2318724 -0.10077039 0.12952955 -0.04633116
000050 ed 2c 9a bd 3b c2 2e 3c de 76 0c 3d 6d a3 cf 3d
       -0.075281 0.010666425 0.034293048 0.10138593
000060 d5 60 f6 be 03 a6 ce bd ac 51 78 3a e9 fb 71 be
       -0.48120752 -0.10090258 0.0009472619 -0.23631252
000070 07 e8 3b 3d 54 0d 5c be de d4 02 be 35 03 dd bc
       0.045875575 -0.2148946 -0.12776515 -0.026979068
000080 f5 9f a4 bd 9c cf 05 be 63 c9 68 bd 16 36 f9 be
       -0.08038322 -0.13067478 -0.056832682 -0.48674077
000090 92 40 60 bd 47 7b 13 3e 8c 25 c8 bc e1 90 11 bf
       -0.05474908 0.14402495 -0.024431966 -0.5686169
0000a0 2a 01 40 be 46 01 3b be d2 f2 5a 3d 6d ed 89 bd
       -0.18750444 -0.18262205 0.053454228 -0.067347385
0000b0 eb e8 4f be 91 3a fd be 03 b6 16 be 3e a4 e3 3d
       -0.20303695 -0.49458745 -0.1471787 0.11115311
0000c0 82 46 2a bf cc 86 80 bd 85 84 7f 3c 61 e8 fa be
       -0.66513836 -0.062757105 0.01559556 -0.49005416
0000d0 cd aa 1c be 80 58 64 bd 95 af cd 38 67 a7 67 be
       -0.1529953 -0.055748463 9.8078664e-05 -0.22622453
0000e0 cd 63 2d 3d 7d 49 99 3c c5 45 12 be 38 6d ea bd
       0.042331506 0.0187118 -0.14284427 -0.11446613
0000f0 09 12 5a be 9b 1c d2 bd e9 f2 8e be 16 26 73 be
       -0.21295942 -0.10259362 -0.279197 -0.23744997
000100 10 20 8d 3d 52 8b 59 be cb 6b 9f bc b2 b3 35 be
       0.06890881 -0.21244553 -0.01946058 -0.1774433
000110 85 e6 57 bd 10 c1 7d 3d 65 58 50 be 74 b5 8f bd
       -0.052710075 0.061951697 -0.2034622 -0.07017031
000120 a2 8b 5f be 62 ef ba bd 61 5e d4 bd 65 74 e5 3d
       -0.2183061 -0.0912769 -0.10369564 0.11203841
000130 e6 b3 63 bc b1 11 6b be fa f5 9a be b1 f1 ef bd
       -0.013897872 -0.22955967 -0.3026579 -0.11716021
000140 05 b3 57 be a4 f9 70 be 74 5d f2 bd ac 95 a5 be
       -0.21064384 -0.2353273 -0.11834231 -0.32340753
000150 e8 bc 74 3c 54 d7 80 ba 5b a8 8e 3c 4b c6 2d 3d
       0.014937617 -0.0009829798 0.017414263 0.042425435
000160 c7 91 58 3d 85 70 62 bd 56 2d 49 3e 29 07 f4 bd
       0.0528734 -0.05528309 0.196462 -0.11915428
000170 b3 3c 39 be 65 81 9a bc e2 83 69 bc b9 0f 41 be
       -0.18089561 -0.018860528 -0.014252635 -0.18853654
000180 c8 01 eb 3a 4a c7 f0 bd 64 e5 53 bd 2a 99 6b be
       0.0017929608 -0.11756761 -0.051732436 -0.23007646

state_encoder.obj_encoder.model.2.weight f4 [100, 100]
000000 80 d7 06 3e d6 95 a7 bc 4a c3 ed 3d 28 ca 9a bd
       0.13168144 -0.02045719 0.11609514 -0.075580895
000010 ad f2 e5 3d 6f bd 23 bd 4c 49 56 bc 83 98 82 bc
       0.11227927 -0.03997558 -0.013078999 -0.015941864
000020 31 f2 80 3e f5 fa b5 bd a9 4c b6 bc a9 50 4c bc
       0.25184777 -0.08885757 -0.022253351 -0.012470403
000030 3d 51 01 bd d3 78 82 bd 3b 95 fa bc 3f 63 0c 3d
       -0.031571615 -0.06370702 -0.030588737 0.034274336
000040 0c b1 e1 bd 7d 37 6a bd 23 8c cb 3c ab e3 49 3e
       -0.11020097 -0.057181824 0.024847096 0.19715755
000050 b2 b0 a0 3d 82 89 4b 3d b9 b8 37 3d 8a 1c 87 bd
       0.07846202 0.049691685 0.0448539 -0.0659724
000060 06 4d 9e 3c 90 f9 9f 3d 9c 9f a5 3b 38 ac fd 3d
       0.019323837 0.07811272 0.0050544273 0.12386364
000070 1f 8e 22 bc 53 c1 a3 3e 2b c6 e5 bc b6 9c 6d 3c
       -0.00992158 0.31983432 -0.028048595 0.014502695
000080 60 9a 95 3d eb 42 c1 3c fe 79 2b bd cb 3b d4 bc
       0.07304835 0.02359148 -0.041864388 -0.025907418
000090 19 83 2b 3c 98 53 09 3e 88 6c 74 3d e9 f0 8e bc
       0.010468268 0.13410795 0.059673816 -0.01744886
0000a0 71 11 a1 bd 7c 9a 2f 3d 85 db 2b bc 74 56 ac 3b
       -0.07864655 0.042871937 -0.010489349 0.0052593295
0000b0 76 eb 38 3d 53 03 01 be 02 25 e4 bd 1d b8 88 be
       0.045146428 -0.12598924 -0.11139871 -0.26702967
0000c0 ac 43 03 3c f8 37 6d 3d 44 95 07 be 1b 5e 4b bc
       0.00801174 0.057914704 -0.13240534 -0.012412573
0000d0 d5 62 09 bd aa a4 40 3d 43 40 47 bb 10 23 36 3e
       -0.03354152 0.047032036 -0.0030403293 0.17786813
0000e0 92 18 52 be 2d 6b 8b bc d5 5f 3a bd ee 79 ae bd
       -0.20517185 -0.017018879 -0.04550155 -0.0851935
0000f0 5d 85 07 3e 3d 23 02 bd 39 3b c0 3e 0f f6 ff 3c
       0.13234468 -0.031771887 0.37545183 0.03124526
000100 25 8f 38 bd fa a6 39 3d f6 6d a2 3d b7 c7 88 bd
       -0.04505839 0.045325257 0.0793113 -0.066787176
000110 2f 2f be bd 88 8e 5d 3d 5e 62 8c 3c 06 2b 1c 3e
       -0.09286343 0.054091007 0.017136749 0.15250787
000120 a0 18 e6 bc 06 25 ec bd aa 8f 43 be d6 c4 fc 3d
       -0.028087914 -0.11530499 -0.19097772 0.12342231
000130 3f ad 8d bd 53 55 cb 3c 93 01 92 3d 08 e4 be 3c
       -0.0691781 0.02482096 0.071292065 0.023302093
000140 c3 39 2b bd d0 8f 12 3d 22 a5 b0 3d 83 83 35 3c
       -0.041803133 0.03578168 0.086252466 0.011078718
000150 bc 11 99 bd c0 93 b5 3b 55 e5 82 bc 05 4d 93 3c
       -0.07474086 0.005541295 -0.015978495 0.017981062
000160 ae d2 07 3e 54 19 5e 3e a8 6e 20 bd 4e 64 3b bd
       0.13263962 0.2168935 -0.03916803 -0.045749955
000170 7c 89 89 bc 3d d9 02 3d 76 07 76 3d 8f aa 23 3c
       -0.01678919 0.031945456 0.06006571 0.009989395
000180 8a 2e 88 3e 9b bb 01 bd 5e 29 22 bd ca e3 85 bd
       0.26598006 -0.031673055 -0.039590232 -0.06537588
000190 0b b1 5f bd ca 76 12 bc cc b9 f1 3e be 4f 1e 3c
       -0.0546122 -0.008939454 0.47212064 0.009662567
0001a0 6e e2 bd bb 9e 5c 3a bc 2b 04 ab bd e7 0a 20 bd
       -0.005794815 -0.011374621 -0.08350404 -0.039072897
0001b0 58 82 8d 3d 3a 1f 57 bb 15 9d 2a 3f 6f 8b 07 3c
       0.06909627 -0.003282501 0.6664594 0.00827299
0001c0 27 8a a3 ba 98 dd ab bc b4 7f 4b 3d 58 90 6a be
       -0.0012477086 -0.020979688 0.049682334 -0.22906625
0001d0 34 bf 3e 3d d0 48 a2 bc cc ea 78 3d 37 bf c9 bc
       0.046569064 -0.01981011 0.060770795 -0.024627311
0001e0 56 cc 35 bd 5f 47 eb bd 7d 65 94 3d f5 20 89 bd
       -0.044384323 -0.11488222 0.0724592 -0.06695739
0001f0 8d 8e fb bd d2 2c 03 3d 50 cc 0c bd 91 7a d8 bd
       -0.12283049 0.032025166 -0.034374535 -0.10570253
000200 f7 5b 44 3d 9a 5e 06 be d7 25 32 be 0a f7 83 bd
       0.047939267 -0.13122025 -0.17397247 -0.06443603
000210 64 b5 31 3e 64 ff b4 bc 89 11 1e bd b4 ae 95 3d
       0.17354351 -0.022094436 -0.03859094 0.073087126
000220 ed c6 02 3b b3 46 ab bd 66 a1 60 3b 92 f0 3f 3d
       0.0019954995 -0.08363094 0.0034275888 0.046860285
000230 95 8e 19 be f3 28 95 bd 26 a1 74 3d 77 0b 84 3d
       -0.14995797 -0.07283201 0.059723996 0.06447499
000240 7a 7c 65 be d4 7b a1 3e 21 c3 7f 3d b3 90 5b 3c
       -0.22410765 0.31539786 0.06244195 0.013401198
000250 f2 81 d6 be b5 53 c4 bd 7b 79 9d bd 8c 75 b6 3c
       -0.41896015 -0.09586278 -0.07689186 0.022272848
000260 37 56 e4 3e 50 0f 3b 3c cd d5 66 3c 67 57 2d bd
       0.44597027 0.011417225 0.01408906 -0.04231968
000270 cb 03 83 bc de 01 b5 bd 8b 6e 6d be 4f 06 cf 3d
       -0.01599302 -0.08838247 -0.231867 0.10108625
000280 3e 19 6d be 74 bc cf bd db 82 dd bd fd 78 76 3d
       -0.2315416 -0.101433665 -0.10815974 0.060173977
000290 e8 8e 37 3c b2 d3 43 3d 89 09 a5 bd fe 63 28 3e
       0.011203505 0.04780931 -0.08058459 0.16444394
0002a0 41 94 10 3c 15 76 9e 3d 15 b0 b4 bd 41 39 eb bc
       0.008824409 0.07737366 -0.088226475 -0.028713824
0002b0 ef 87 85 be de 60 61 3b bf c1 1a 3e b3 c8 8f 3d
       -0.26080272 0.0034390013 0.15112971 0.07020702
0002c0 11 06 33 bd a0 20 23 3e 7e c8 27 3d 29 5a 49 3d
       -0.043706957 0.15930414 0.04096269 0.04915825
0002d0 9f 92 d9 3d 76 e9 2c bd 6c cc e5 bd 78 28 02 be
       0.10623669 -0.042214833 -0.11220631 -0.1271075
0002e0 69 d2 06 bd ec df ab 3c 49 ec 2f 3c 09 28 b6 bc
       -0.032915507 0.020980798 0.010737487 -0.022235887
0002f0 67 aa ac bb d1 f1 45 bd fd d2 e6 bc 25 7d a1 bb
       -0.005269337 -0.048326317 -0.028176779 -0.0049282485
000300 30 c3 c1 3b de 62 2c bd 08 bf a1 bd 29 b5 07 3d
       0.0059131607 -0.042086475 -0.078977644 0.033131752
000310 15 d0 81 3e 59 6a 1f 3d ee 7f a1 bc a5 a3 5d bd
       0.25354066 0.03891978 -0.019714322 -0.05411114
000320 fc 21 6c bd 4d 5d 46 bd 17 70 1f be 7d 20 a1 bd
       -0.057649598 -0.048428822 -0.15570103 -0.07867525
000330 dc 5f 71 bd 0f 69 d9 3c 6d f0 a8 be d5 09 15 bd
       -0.05892931 0.026539354 -0.3299593 -0.03638633
000340 c5 90 98 3d 84 1b fa bc 6d 89 32 bd 05 8f d8 3b
       0.074494876 -0.030530699 -0.04358809 0.006608846
000350 2b d4 4c 3d 31 8b 18 bd 2f 32 72 bd 04 9d 21 be
       0.050007027 -0.03724212 -0.05912989 -0.15782553
000360 9a ce 03 3c 7e b4 2b be 1e 67 78 3c ba cb e7 bd
       0.008044863 -0.16768071 0.015161304 -0.11318155
000370 07 d1 46 bc c5 2f 2a bd bd 57 a1 bb e0 77 e7 39
       -0.012134797 -0.041549463 -0.0049237893 0.00044149067
000380 4b e2 a8 3d af 80 ac bd 1d 8f 94 3c dd a2 8d be
       0.08246287 -0.08422982 0.018134648 -0.27663317
000390 05 b1 e1 3d b9 9a 31 bd 0c 46 bb bd 3a 75 a4 3e
       0.11020092 -0.043360446 -0.0914422 0.32120687
0003a0 bf 7b d4 3d 6f 9d c0 3c 2f 7e 4a bd f8 45 23 be
       0.10375165 0.02351257 -0.049436744 -0.1594466
0003b0 6e 5a 8c bd f0 8f a9 3c 46 44 e4 3d ba 6f 52 be
       -0.068531856 0.020698518 0.111458346 -0.20550433
0003c0 d9 ec e4 3d 3d c0 80 bd 53 2d 7d bd c1 4d 9b 3d
       0.111779876 -0.062866665 -0.061810803 0.0758319
0003d0 49 6b 61 3d 72 17 45 3e 1e df c0 bd 5b b2 e4 bd
       0.055033956 0.19247225 -0.09417556 -0.11166831
0003e0 79 c6 2a be 67 64 08 3b f0 0c 74 be c1 7b 83 3d
       -0.16677274 0.0020811798 -0.2383306 0.064200886
0003f0 85 03 3e be a6 5f 5e bc 47 db 71 bb 68 69 b4 3d
       -0.1855603 -0.013572609 -0.003690438 0.08809167

state_encoder.obj_encoder.model.2.bias f4 [100]
000000 b8 c1 13 3d c4 9b ca 3d d9 7c 1c be db f3 5f 3d
       0.036073416 0.09892991 -0.15282 0.054675918
000010 8e 15 92 bc 3c 8b 45 be 09 3c 9f 3d 1d 23 0d bd
       -0.017832544 -0.19291395 0.07775123 -0.034457315
000020 a0 7a 02 be 44 36 03 bd 8d b7 d0 3c b3 a2 04 3e
       -0.1274209 -0.032034174 0.025478149 0.1295269
000030 f3 a9 1d be 75 c2 3c bd 5f 39 a9 3c 16 ea f5 3d
       -0.15396862 -0.046083886 0.02065724 0.12007539
000040 90 23 35 bb 98 c0 a7 3d 9e 16 94 3d 14 6d 91 3d
       -0.0027639605 0.08191031 0.072308764 0.07100883
000050 a1 af cd 3d 75 cf 0d bd 7d 5f 37 3d 13 bb 9e bd
       0.10043264 -0.034621675 0.0447688 -0.07750525
000060 52 b9 e4 bc 07 10 fc 3d 14 72 4a bd 0d b9 92 bc
       -0.027920399 0.123077445 -0.0494252 -0.017910505
000070 81 53 f5 bc 3d c1 bb bd f6 a9 ef bd ec f0 1b 3e
       -0.029947044 -0.09167717 -0.11702339 0.15228623
000080 d6 24 25 be 7d 7e 2e be a9 72 0f bd 8c b6 f7 ba
       -0.16127333 -0.17040439 -0.035021458 -0.0018899008
000090 5a 28 be bc 51 51 90 3d 60 ca b9 3d 28 a0 fb bd
       -0.0232126 0.0704676 0.09071803 -0.12286407
0000a0 34 79 30 3d f1 59 8e 3d 57 8f 8d bd 84 75 78 3d
       0.04308434 0.06950749 -0.069121055 0.060658947
0000b0 0d fb bb bd 28 02 fd 3c 7e 86 8e 3c 78 a0 3a bd
       -0.091787435 0.030884817 0.017398115 -0.04556319
0000c0 be 07 05 3e bb d6 a8 bd be b9 17 bd 03 20 52 3d
       0.12991235 -0.082440816 -0.037042372 0.05130006
0000d0 0e 17 d0 3b da c8 fe bc 27 96 f7 3d 9f c1 72 3c
       0.0063504046 -0.031101633 0.12089186 0.014816671
0000e0 fe 2a ca 3d 89 9d bf 3c 5c ac 6d 3d ce ec 51 3d
       0.09871481 0.023390548 0.058025703 0.051251225
0000f0 fc 79 ae bb 0e 9a 18 be c3 78 e5 bd c7 64 74 3c
       -0.0053246003 -0.14902517 -0.11204674 0.014916605
000100 44 39 31 3e b8 6c 68 bc f5 e8 91 bd 6a 47 2a bd
       0.17307001 -0.014186077 -0.07124511 -0.041572012
000110 d6 31 97 3b 0d c2 16 3c 4c 2a 1a be 48 5b 19 be
       0.004614095 0.009201539 -0.15055197 -0.14976227
000120 e1 24 60 be 8c 6b 02 bd 28 5c 50 be 79 bc a4 3c
       -0.21889068 -0.031840846 -0.20347655 0.020109402
000130 89 db 29 bd 54 ff d0 bd f7 a2 d1 3c 4c 65 7e bc
       -0.04146913 -0.1020495 0.025590403 -0.015527081
000140 c3 b9 35 bd 69 b6 db 3d 3e ad bc 3b 90 ff 84 3d
       -0.04436661 0.10728151 0.0057579568 0.06494057
000150 36 95 69 bd 9e 8d bf bd f9 c3 5f 3e e9 96 26 bd
       -0.057027064 -0.09353183 0.21852101 -0.040671263
000160 1a 4f ba be 0b 7b 4d bc e5 7d 4c be 41 92 9d 3c
       -0.36388475 -0.012541543 -0.199699 0.019234778
000170 f0 8e f0 3c b6 d2 0d 3e ac 28 91 bb 57 86 46 3c
       0.029365033 0.13849911 -0.0044298973 0.01211699
000180 cc 64 79 bd c4 da e4 bc 81 8e 35 ba 4e dd 9e bd
       -0.060887143 -0.027936347 -0.0006925837 -0.07757054

state_encoder.relation_encoder.model.0.weight f4 [120, 49]
000000 74 b6 3a 3d b0 91 a6 3c ec f3 ce 3e 3f 4e 68 bd
       0.045584157 0.020333141 0.40420473 -0.056715246
000010 ec 02 f9 3e 9e 70 e5 bd 00 9d f3 bd ed ba 27 3e
       0.48635042 -0.11203121 -0.1189518 0.163799
000020 cd e8 37 3e f0 5f 08 be 9f 23 af bd cf 33 b4 3e
       0.179599 -0.13317847 -0.08551716 0.35195777
000030 ad df 84 bd 7c 90 93 3e 27 c3 75 bd 2a db a3 bc
       -0.06487975 0.2882117 -0.060000565 -0.020001967
000040 74 aa ce 3e 7f 35 d5 3e ff 9e 20 be 1b ed 7c be
       0.4036442 0.41642377 -0.15685652 -0.24699824
000050 7e 5f 06 3e 87 95 19 be fb 82 c0 3d c6 b8 f2 bc
       0.13122365 -0.14998446 0.093999825 -0.029629122
000060 cd 6e 63 3c cc aa 03 3f 42 fc c3 3e 92 40 b0 3d
       0.013881397 0.5143249 0.38278395 0.08606066
000070 fc af bd be 04 94 8a be 8b 8a 5c 3e ed 13 b3 3e
       -0.37048328 -0.27066052 0.21537225 0.3497614
000080 dd ee f9 bd dd 36 07 3e 82 4d 9b 3e 87 6c 57 bd
       -0.12203763 0.13204522 0.3033257 -0.052593734
000090 61 2a cc 3b 96 2d 6d 3d 3c eb 11 bd 87 56 33 3d
       0.006230638 0.057904802 -0.035624728 0.04378369
0000a0 e8 ea d8 3c b3 67 05 bd 6a 15 28 bd 01 27 45 bd
       0.0264792 -0.0325696 -0.041036047 -0.0481329
0000b0 5f c4 de 3b df 8c 6c 3d 9e 8d 35 3d 3d 15 aa 3c
       0.0067983116 0.057751533 0.04432451 0.02076208
0000c0 f0 a6 fc 39 40 90 57 be 3d 30 28 3e 20 7d 6a bc
       0.00048189564 -0.21051121 0.16424651 -0.014312059
0000d0 b1 b4 96 be 96 13 04 be 66 32 75 be 37 20 96 be
       -0.29434732 -0.12898096 -0.23945007 -0.29321453
0000e0 1a 50 59 be 55 93 3d 3e d9 9c c4 3e e3 26 a3 bd
       -0.21221963 0.18513234 0.38400915 -0.079664014
0000f0 f7 a0 da be 81 f6 ff be df 2f bf 3d 0f 23 89 3e
       -0.4270093 -0.49992755 0.093353026 0.2678456
000100 ee 51 4c bc 37 3c 81 bd 16 24 2b be 88 fc d4 3d
       -0.012470705 -0.06310313 -0.16712984 0.10399729
000110 70 ea cd 3d 64 b4 57 be 10 6c c4 be dd 3f 2e bc
       0.10054481 -0.21064907 -0.38363695 -0.010635343
000120 5e fd 5f 3e 56 60 6c be 2e 71 e4 bb be 58 0a 3e
       0.21873996 -0.23083624 -0.0069715 0.13510415
000130 ae 6f ca be 8c 45 5f 3e a8 54 e6 be b9 e5 22 3f
       -0.3953833 0.21803874 -0.44986463 0.6363178
000140 f6 40 fa bd dc 2b 63 3e 0d 96 39 3e fc 14 14 3f
       -0.122194216 0.221847 0.18123646 0.5784452
000150 ba 1c 45 bc 5e cf c5 3b 53 a4 59 3c b5 d8 96 bb
       -0.012030775 0.006036683 0.013283807 -0.00460347
000160 fd e6 dc bb 57 84 aa 3b f0 9b 60 3b ae 5b 07 3a
       -0.006741403 0.0052037644 0.0034272633 0.00051635026
000170 83 77 a8 bc c1 67 96 3d 61 50 b2 3c 56 fb 0c 3d
       -0.0205648 0.07344008 0.021766843 0.03441938
000180 a3 9c 64 3c 2e 98 ab 3c 7c 28 89 be 1e 16 98 bd
       0.013953361 0.020946588 -0.267887 -0.074260935
000190 98 3f 3c 3c 0b ba 9c 3d fb ce 85 be 54 e8 03 3f
       0.011489771 0.076526724 -0.26134476 0.5152638
0001a0 94 aa 22 bf 0f 13 c9 3e bb 4a f8 3d 4b d0 4f 3c
       -0.6354153 0.39272353 0.12123629 0.012683938
0001b0 d5 dc 31 bc f2 27 8e bd e0 7a 01 3e 5a dc c2 be
       -0.010855873 -0.06941213 0.1264453 -0.3805874
0001c0 4a 29 58 3e 87 d3 3d bf 62 92 99 3e aa f6 8c 3e
       0.211095 -0.7415089 0.29994494 0.2753194
0001d0 5c 83 00 bd e5 ed c9 3d 06 6e f6 bd e6 06 dc 3d
       -0.031375274 0.09859828 -0.12032704 0.10743503
0001e0 58 28 f8 be 06 9b 22 3e b4 fe 5f bf 26 92 b6 3e
       -0.4846828 0.15879449 -0.8749802 0.35658377
0001f0 c7 66 e1 3e da b7 9c bd ee 5e ab be 54 85 51 bd
       0.44023725 -0.076522544 -0.33470863 -0.051152542
000200 01 c6 8d 3d 0f 26 d4 3d 1b 7d 3a 3d 6c 8c 2d 3e
       0.06922532 0.103588216 0.045529466 0.16948098
000210 f8 9d 3f 3e f9 f2 b9 3c 00 31 04 bd c8 b7 b2 bd
       0.18712604 0.022698866 -0.032273293 -0.0872646
000220 5f 78 8e 3c 34 09 80 bc 91 3e a2 3d 70 36 70 3d
       0.017391382 -0.015629388 0.0792209 0.058645666
000230 3e fa 9f bd 74 a6 ef 3c 63 b9 61 3c 0c 9e de 3c
       -0.07811402 0.029254176 0.01377711 0.027174972
000240 92 17 22 3d 4a d5 85 3c 68 7f d2 3c bf a9 95 bd
       0.03957326 0.016337056 0.025695518 -0.07307767
000250 e6 8a 91 3d 8c 36 33 3e 2e 48 83 3e b3 0d 73 3e
       0.07106571 0.17501277 0.25641006 0.23735695
000260 6d e1 b5 3d 3b 19 92 bf a8 44 42 bf 26 69 30 3f
       0.08880887 -1.141395 -0.7588601 0.68910444
000270 1b 92 d4 3c 04 4f 7f bd 33 a9 e5 3e e8 93 eb 3c
       0.025948575 -0.062331215 0.4485565 0.02875705
000280 5a 01 6d 3e e3 34 3f 3d dd b1 9f bf 4a 8d b3 bb
       0.23145047 0.046681296 -1.2476155 -0.0054794895
000290 ee 5f db 3e c3 42 0e be af 40 4a bd 97 fc ea 3e
       0.42846626 -0.13892655 -0.049378093 0.45895836
0002a0 22 e7 65 bc 42 fa 47 3e 34 26 0e 3e b0 7f a4 bf
       -0.014032157 0.1952906 0.13881761 -1.2851467
0002b0 a1 97 a7 3d 23 5e 88 3e c0 8d a8 3d b7 c0 8d 3e
       0.08183218 0.2663432 0.08230162 0.27686092
0002c0 3b db e5 3d 18 57 07 bd 22 2f 06 be 22 5c dc bd
       0.112234555 -0.033042043 -0.13103917 -0.107597604
0002d0 e6 2a de 3d 96 e9 50 bd 7f 61 97 3d a8 02 08 be
       0.10848026 -0.051004015 0.07391643 -0.13282263
0002e0 96 a6 64 bb e9 c7 b3 3d 5f c4 24 bd 10 8f 04 3d
       -0.0034889332 0.08778364 -0.040226337 0.032362998
0002f0 5b 25 b2 b9 58 fb 8f bc 9c 3e 12 be 93 49 84 bd
       -0.00033978638 -0.017575905 -0.14281696 -0.06459346
000300 52 f9 81 bd 10 98 4a 3d 41 a5 3a 3d 64 b7 8d 3d
       -0.06346382 0.049461424 0.045567755 0.069197446
000310 36 92 84 be c0 56 19 bf 14 be 4b bc da a4 f9 be
       -0.258928 -0.59897995 -0.012435455 -0.48758584
000320 be 8d a1 3e 20 df 6b bf 28 2f 92 3e cc 02 9b be
       0.31553453 -0.92137337 0.28551602 -0.3027557
000330 8c 0c fa 3e 2a 83 4e be 52 68 99 bd ab df 23 3e
       0.48837698 -0.20167223 -0.07490601 0.16003291
000340 7c a6 ce be e9 6c 9d 3e 50 a4 23 bf 06 9a 05 3e
       -0.40361392 0.30747154 -0.63922596 0.13047037
000350 5f a1 f9 be 44 37 e0 3e 71 5e 8e bd 20 ac a4 bd
       -0.4875593 0.43792164 -0.06951607 -0.08040643
000360 d4 ae 7f 3e 56 9c c5 be 0b 43 99 3e 0e e4 eb be
       0.24969035 -0.38595837 0.29933962 -0.4607243
000370 34 0d 0c 3d 5d 18 d9 be d1 9b d1 3e 11 aa 11 3f
       0.03419228 -0.424014 0.4093919 0.56900126
000380 68 90 80 3e 77 98 a4 3c d7 0c 8b 3d 3a a2 b6 be
       0.25110173 0.020092232 0.067895584 -0.35670644
000390 52 c8 01 3e 03 a2 9e bc 10 d7 a8 3d d3 f0 f2 bb
       0.12674072 -0.019364363 0.08244145 -0.0074139624
0003a0 04 07 5e bb 1f c9 bc bc 16 41 f8 bc 89 b0 18 3d
       -0.0033878693 -0.02304512 -0.030304473 0.037277732
0003b0 db ce 49 bd 8a 6f 06 3c 2f e9 30 bd 6b 1e 0c 3d
       -0.04926954 0.008205304 -0.04319113 0.034208696
0003c0 54 32 e6 bc 3f d8 23 bd 79 82 69 3d 5f 1d 47 3d
       -0.02810017 -0.04000115 0.057009194 0.048611995
0003d0 62 9a 2d 3d 7b 2a 3b bd bd 12 48 3d c2 67 ea be
       0.04238356 -0.04569481 0.048845995 -0.45782286
0003e0 cf e5 96 be 1c 9d a5 be 7f 67 db 3d fb 65 7f 3d
       -0.29472205 -0.32346427 0.107131 0.062353116
0003f0 ab 3c 78 be 00 cf b9 3e 83 49 84 be 48 01 c2 3c
       -0.24241893 0.3629074 -0.25837335 0.023682252

state_encoder.relation_encoder.model.0.bias f4 [120]
000000 8b 4a 77 3d 39 39 64 be cd 69 57 3e 5c 9f c6 bd
       0.060373824 -0.22287454 0.21036454 -0.09698364
000010 96 ee 13 3e 81 05 06 3e a9 e5 27 be 6c e1 32 be
       0.14446482 0.13088037 -0.16396202 -0.17468804
000020 cb dc 95 3c 22 ce db bc 07 0e 1f bd bf 8d 03 3c
       0.018293759 -0.02683169 -0.038831737 0.0080294
000030 ae e6 80 be 8b 6b c8 3d 8f 65 ae be e0 4e e9 bd
       -0.25175995 0.09786137 -0.34061858 -0.11391997
000040 54 a8 8a 3d a8 1f 50 3e ed bb 3e be 6d ef fe bd
       0.06770387 0.20324576 -0.18626375 -0.124480106
000050 c3 ed f3 bd 71 a3 78 be 51 d9 93 3e 46 63 97 3d
       -0.11910584 -0.24281098 0.28876737 0.07391982
000060 f3 2f 23 be 1b 15 15 bc 89 5c 53 be 62 37 92 bd
       -0.1593626 -0.00909927 -0.20640768 -0.0713947
000070 0f 4c 42 be 96 b5 07 be 3a 3e bd 3d cc 28 15 bc
       -0.18974327 -0.13252863 0.092403844 -0.009103965
000080 dc 85 40 be 80 4a 52 3b 48 d1 b1 3d fb 25 16 bd
       -0.18801063 0.0032087862 0.08682495 -0.036657315
000090 4e 2e ce bd eb 80 a0 bd 00 e1 ed bd 2b 8a 3a bd
       -0.10067426 -0.07837089 -0.11615181 -0.045541923
0000a0 96 54 bf bc 4b e1 3f 3e ef 8f 2e 3d c3 8d eb 3c
       -0.023355763 0.18738286 0.042617735 0.02875412
0000b0 25 10 3e 3d 3e bb 81 3c b4 03 20 3d 98 1a f5 bd
       0.046402115 0.015836354 0.03906603 -0.11967963
0000c0 df 10 57 be 5d 63 df bc b1 95 bf 3c 0f 31 d6 bd
       -0.2100253 -0.02726906 0.023386808 -0.10458576
0000d0 6f fc 60 be f7 15 a6 ba a3 ee 41 be 35 d8 18 be
       -0.21971296 -0.0012671341 -0.18938689 -0.14926226
0000e0 83 01 6f 3d 2f 4f 28 be a7 8b 0f bd 88 c6 9d 3d
       0.05835105 -0.16436456 -0.035045292 0.077038825
0000f0 6e 5b 18 bd bc 5a 74 be 24 a2 6c 3e f8 77 82 bd
       -0.03719657 -0.23862737 0.23108727 -0.063705385
000100 4e eb 61 bd 56 61 fa 3a 19 26 3f be 34 d9 5a be
       -0.055156045 0.0019102495 -0.18666877 -0.21371919
000110 ef 0c 9f ba 41 4f 41 be 8d 13 a8 bd 4b d2 71 be
       -0.0012134592 -0.18877889 -0.08206854 -0.23615377
000120 79 0d cb 3d 66 72 fe bd bc 59 6a 3d d7 03 17 bd
       0.09914679 -0.124241635 0.057214484 -0.036868896
000130 db 21 9a 3b 88 df 5e 3e fa 7f 8b bd a0 bc 91 3d
       0.004703743 0.21764958 -0.06811519 0.071160555
000140 d9 5b 2f bd 2e 07 22 be 24 f4 44 be 7f 0b 1b 3e
       -0.042812202 -0.15823051 -0.19233757 0.15141104
000150 d9 6c 14 be 4f 77 9c 3c 2c e5 cd bc 5f d8 02 3e
       -0.14494647 0.01909986 -0.025133692 0.12777852
000160 fb e1 3f bd cf 7e 19 be 91 8c 2c bd 18 ca 7b be
       -0.04684637 -0.1498978 -0.042126242 -0.24588811
000170 8c 28 af bb 88 99 94 bd e7 f4 45 3e 72 41 7d be
       -0.0053454097 -0.07255846 0.19331704 -0.24731997
000180 2a a6 5b 3d a4 f9 d7 bd 02 cc c3 bc 82 43 83 bd
       0.053625263 -0.10545662 -0.02390099 -0.064093605
000190 0e 24 34 bd 5f 40 f2 bd 3f 9a bc 3d 46 bf 62 be
       -0.043979697 -0.11828684 0.092091076 -0.22143278
0001a0 a5 42 ba bc a0 77 32 be b8 9f d9 bd 5f ae 0f bd
       -0.022736857 -0.17428446 -0.10626167 -0.035078403
0001b0 89 7b ab bd 24 52 22 bd c8 56 45 bd 57 98 21 be
       -0.08373172 -0.039629117 -0.048178464 -0.1578077
0001c0 a1 44 38 be 89 ef 2f be 4f d2 e7 bc f3 a7 26 be
       -0.1799493 -0.17181219 -0.028298525 -0.16275005
0001d0 06 b0 d7 bd 33 c1 23 be 09 2d c9 bd b0 8c 95 3d
       -0.10531621 -0.15991668 -0.09823043 0.07302225

state_encoder.relation_encoder.model.2.weight f4 [120, 120]
000000 ef df 0e 3e c9 32 aa bd 4e fb a1 3d b0 bc b4 3c
       0.13952611 -0.08310468 0.07909261 0.02206263
000010 fe 66 4a 3d 62 a6 47 bd 2c 9b 1d be fb 8b 5b bd
       0.049414627 -0.04874266 -0.15391225 -0.053600293
000020 64 65 11 3e cd 1c 82 bd ae 9b da 3c e6 38 3d 3e
       0.14198834 -0.063531496 0.026685562 0.18478736
000030 b8 af db ba 37 19 b5 3d 01 9c 80 bd 9e a8 29 be
       -0.0016760742 0.088427 -0.062797554 -0.16568229
000040 6b ce 02 3d d0 73 e8 bd 74 61 94 bd 69 46 a3 3c
       0.031935137 -0.113502145 -0.0724515 0.019931035
000050 89 0d a5 3d c0 97 92 bc 8c ea 30 3d b8 cb 15 bd
       0.08059222 -0.017894626 0.04319243 -0.036571234
000060 97 8c 00 3e 9f ed 38 3d a4 49 0f be ca f3 0a 3d
       0.12553631 0.045148488 -0.13992935 0.0339239
000070 0e a7 09 3e 87 87 41 3e 2f 70 f2 3c 23 f0 75 bd
       0.13442633 0.18899356 0.029594509 -0.060043465
000080 42 cc ed bc aa 15 4f 3d 20 30 17 be 9d 04 2b 3d
       -0.029028062 0.05055777 -0.14764452 0.041752446
000090 a2 93 33 be ff ac 5c 3e c6 1d 56 be 8d 91 1a 3e
       -0.17536786 0.21550368 -0.20909795 0.15094586
0000a0 fb 7b b8 3d 61 ce 9d be ad 96 ec 3d 3a 92 09 be
       0.090080224 -0.30821517 0.115521766 -0.13434687
0000b0 d7 c5 5b 3d 92 77 03 3e 1e 62 4e bd e2 b7 66 3d
       0.05365547 0.12838581 -0.05038654 0.056327708
0000c0 a4 07 cd 3d e8 4e 1d be 09 17 6f bc e8 03 98 bc
       0.10011223 -0.15362132 -0.014592894 -0.01855655
0000d0 90 2d 3a 3e c3 b7 09 3d 04 2d 0a 3e 73 0f 6b bd
       0.18181443 0.033622514 0.13493735 -0.05738778
0000e0 44 ec c6 3d 3e 2d e4 bd 19 e9 0a be 13 ec d4 3c
       0.09713033 -0.11141442 -0.13565482 0.025991475
0000f0 46 d9 56 3e 21 39 d6 3c d2 2f e0 3d a7 9b af 3d
       0.2098132 0.026150288 0.10946621 0.0857461
000100 12 13 3a 3e 94 46 c1 bc 08 29 63 3e 20 b5 39 be
       0.18171337 -0.023593225 0.22183621 -0.181355
000110 e2 22 cc bd e6 9c 09 3e ac 66 94 3d 42 2a 59 bd
       -0.09967591 0.13438758 0.072461456 -0.053018816
000120 ba f1 94 be a2 58 8e 3d 6b c2 a9 3e 3b 0e 2f 3d
       -0.29090673 0.06950499 0.33156142 0.04273818
000130 03 c8 3d 3e f6 5e 02 3e f2 12 9a 3d 21 f9 10 be
       0.1853333 0.12731537 0.07523145 -0.14157535
000140 d5 7e dd 3b b5 15 9d 3d 13 28 7d be 60 2f 6f be
       0.0067595043 0.07670156 -0.24722318 -0.23357916
000150 ea 4a aa bd 48 05 43 39 a6 e5 84 bd b9 71 d5 3b
       -0.0831507 0.00018598617 -0.064891145 0.006513801
000160 0e 0f 10 3e 86 a5 05 3d 97 e6 21 bd c8 89 b8 3b
       0.14068243 0.03262856 -0.03952655 0.005631659
000170 80 43 16 be 07 f8 fe bd fb e1 2a bc 9b 4e 4c 3e
       -0.14674187 -0.12449651 -0.0104298545 0.1995186
000180 da 53 f3 3c 5c b5 60 bd 8b 72 b8 bd b6 5a af bd
       0.02970307 -0.054860458 -0.09006222 -0.085622236
000190 88 5d 15 be 67 c8 cc 3d a6 03 9a bc bc fa 28 3e
       -0.1458646 0.09999161 -0.018800568 0.16501898
0001a0 d0 08 63 3d bb e5 29 3e b0 db 34 be 3f 35 e6 3d
       0.055428326 0.16591541 -0.17661929 0.11240625
0001b0 fc 39 13 bd d3 c4 8f be ac 41 91 3d 39 e7 ec 3d
       -0.03594397 -0.28079852 0.07092604 0.1156754
0001c0 2f da 4e bc dc e9 3a bc b7 14 1c be a3 20 34 be
       -0.012625261 -0.0114082955 -0.15242277 -0.17590575
0001d0 28 00 15 3e 9c 30 54 3e 0f 07 82 3c ee 5e 80 3e
       0.14550841 0.20721668 0.015872506 0.25072426
0001e0 e2 b9 d4 bd 9c c1 52 3e 46 e1 81 3d 9a c4 12 3e
       -0.10387017 0.20581669 0.063417956 0.1433281
0001f0 9f bb 2f bd 31 32 97 3d 0a d7 09 3e a3 04 24 be
       -0.04290354 0.0738262 0.13460937 -0.16017394
000200 66 53 8c 3e 61 6d c7 3e 54 84 6f 3d 0b ba a6 bc
       0.27407378 0.38950637 0.058475807 -0.020352384
000210 c2 fc ea 3c c5 56 70 3d 8c a8 d6 bd 6d e6 ff 3d
       0.028684977 0.0586765 -0.104813665 0.12495122
000220 7f 36 20 bd 84 23 74 bb cd 5c f0 bd d5 84 ca 3c
       -0.03911447 -0.0037252614 -0.1173645 0.024721542
000230 6d d9 43 3c 02 cc a3 bd 2d f1 a1 bd 5c 0a 9a bd
       0.011953694 -0.07997896 -0.07907329 -0.07521507
000240 04 d9 91 3b 0f 98 51 3d eb aa d5 3d 9d c7 a1 3d
       0.004450919 0.051170405 0.10432991 0.07899401
000250 10 f7 b0 bd db 0d 8b bf 5e a6 41 3e 97 37 36 be
       -0.086408734 -1.0863603 0.1891112 -0.17794643
000260 b4 95 03 3d f4 ce a1 3d 38 5f e3 3d b3 f2 db b9
       0.03212519 0.07900801 0.11102146 -0.0004195176
000270 09 30 91 3c 14 ba 4d be 9c 1a 2c bf 02 7b 73 be
       0.0177231 -0.20090514 -0.672281 -0.23777393
000280 1d c2 cd 3c 87 6e 4d bd 7d 22 4e 3e 6f fb 8e 3e
       0.025116974 -0.050154235 0.20130344 0.27926204
000290 30 98 11 be 2a d5 14 3d de ee 0a bd 3f af 09 3e
       -0.14218211 0.0363361 -0.033919208 0.13445757
0002a0 70 d2 28 bc 25 54 d5 3d 2b 7d d6 3b c9 10 50 bd
       -0.010304078 0.1041644 0.006545683 -0.050797258
0002b0 5b 49 72 bd dd 8a 23 3d b4 54 85 3c 49 52 a1 ba
       -0.05915199 0.039927352 0.016275741 -0.0012307848
0002c0 ea 47 c7 3c 65 75 09 3e 18 4a cf 3d 3e 11 86 ba
       0.024326283 0.13423689 0.10121554 -0.0010228527
0002d0 1a c2 6d be 6d c2 5f bd fa 93 8e bc c3 f2 60 3c
       -0.23218575 -0.05462878 -0.017404545 0.013729754
0002e0 dc 51 39 3e 1e f4 9d 3e 89 35 ec 3c fa 5f 18 3e
       0.18097633 0.3085031 0.028834121 0.14880362
0002f0 78 2e 6a 3d 4c fc b4 bc d4 3a ea 3b 7c 5a 4f 3e
       0.057173222 -0.02209296 0.007148126 0.20249361
000300 61 fb d2 3c 39 9a 39 3e 1a b8 0a be de 75 c4 3d
       0.025754632 0.18125238 -0.13546792 0.09592794
000310 03 00 93 bc 57 38 08 bf d4 dc a5 3c 95 ff ba 3c
       -0.017944342 -0.5321097 0.0202469 0.02282695
000320 07 ec e5 3d 2e 36 95 bd 09 45 b3 3d 1c 66 00 3e
       0.11226659 -0.072857246 0.08753402 0.12538952
000330 2a be 48 bd 8c 70 c1 be 2d 2f 9f bc 4b 9a ea 3c
       -0.04900948 -0.3778118 -0.019431675 0.028638026
000340 b7 93 32 bd 2b 28 91 be 60 62 c9 3c 22 6b 46 3a
       -0.043597903 -0.28350958 0.024583042 0.00075690646
000350 4a fb 65 3e 3d a9 0a 3e 62 73 42 be c1 f8 6f bc
       0.2245914 0.13541122 -0.18989328 -0.01464671
000360 4c 8a 44 3e 4c ba bf bc fc 1c 1c 3d 8b 01 62 bc
       0.19193381 -0.023404263 0.03811358 -0.013794313
000370 53 20 71 3c e1 ce 3c bd 05 82 5d bd 17 f3 fb 3d
       0.014717179 -0.046095733 -0.054079074 0.12302225
000380 04 31 69 3d 7a b6 4c be 49 f7 ac bc 8d 5e 03 bd
       0.05693151 -0.19991484 -0.021114009 -0.032072593
000390 b3 8e 1b 3e 49 77 93 bd 18 a3 1d bc 72 cb 85 3d
       0.15191154 -0.07200486 -0.009621404 0.06532945
0003a0 bc 09 37 bc b2 77 3c bd 99 ec 7c bd e6 29 70 bd
       -0.011171754 -0.046012588 -0.061749075 -0.058633707
0003b0 63 a2 13 bc 99 62 8e bc 31 00 c7 3b 10 51 bb 3c
       -0.009010884 -0.017381 0.006073021 0.022865802
0003c0 3a 80 e3 bd 08 46 0b 3d 63 f2 c9 bd c2 fb de 3b
       -0.11108442 0.034002334 -0.09860685 0.006804914
0003d0 8d 8d 02 be e0 b7 7c be 61 ed 21 3d ba 99 84 3d
       -0.1274931 -0.24679518 0.039533023 0.064746335
0003e0 06 32 1e be 46 2d 82 bd a2 2d 33 3d 6b 0d 95 be
       -0.1544877 -0.063562915 0.04374469 -0.291118
0003f0 5d d0 98 3d c7 7a 3b bc 5e 13 81 3d b5 e2 5c be
       0.07461617 -0.011442847 0.06302522 -0.21570857

state_encoder.relation_encoder.model.2.bias f4 [120]
000000 c4 df 42 3c 26 5a 98 bd ca 27 6a 3c 3d c2 37 be
       0.01189417 -0.074390694 0.014291713 -0.1794519
000010 7f 9c 6f be 86 72 13 3e a2 df 88 be 2b c8 0b bc
       -0.23399542 0.14399156 -0.26733118 -0.0085316105
000020 93 23 38 3d 23 f0 95 3c 8a 55 a1 bc 3b dc a6 3b
       0.0449558 0.018302983 -0.019694109 0.0050921715
000030 06 ff 36 3e e7 54 83 3d 2a 66 ee bc cf 1b 09 bd
       0.17870721 0.06412678 -0.02910145 -0.033473786
000040 d6 8f 25 3e eb 43 52 3e 5a 67 e9 3e 13 f0 0c bd
       0.1616815 0.20533721 0.45586663 -0.03440864
000050 8d b0 c0 3e 62 69 a6 3e 85 ab 38 3e 4a 94 71 be
       0.37634698 0.32502276 0.1803418 -0.23591724
000060 4c f3 ba bc 04 ab 05 bb 81 32 23 bd 2b 3a c7 3d
       -0.022821091 -0.0020396123 -0.039843086 0.097278915
000070 0f 76 80 bd 97 a5 51 3d 1e 4f 45 bd a8 d9 1d be
       -0.06272518 0.05118331 -0.048171155 -0.1541506
000080 be 1b b4 bc 88 b9 73 3d a4 b8 86 ba 6d b0 13 3d
       -0.021985885 0.05950311 -0.0010278416 0.036056925
000090 78 93 09 3e 0a 31 63 bd 58 46 00 3e dc be 76 bd
       0.13435161 -0.05546669 0.12526834 -0.06024061
0000a0 5f b5 7f 3e bf db fb 3d 13 3a 2a be bd 20 8d bd
       0.24971531 0.122977726 -0.16623716 -0.0689101
0000b0 e0 95 f3 bd fd 39 1c be 10 8e 01 be ae ca de 3d
       -0.11893821 -0.15256496 -0.12651849 0.10878502
0000c0 1d 4f 32 bd 3e a1 94 bd ab 20 fa 3d ae 27 08 3d
       -0.04353248 -0.07257317 0.12213262 0.033240966
0000d0 dc 83 07 3e fa cc 8f be 54 5c 3e 3d 1f 5c cb be
       0.13233894 -0.28086072 0.04647477 -0.3971872
0000e0 e8 6e 98 be 26 8e 4d bd ab 66 c0 be 9d d5 99 be
       -0.29772115 -0.05018439 -0.3757833 -0.30045786
0000f0 7a 6c 0a bd 6a 98 9b be a6 5c 61 3d 58 0a 71 3e
       -0.033794858 -0.3038972 0.055019997 0.23539102
000100 f3 00 0a bc 24 51 b4 3b c6 a7 33 bd d6 78 c7 bc
       -0.008423078 0.005502837 -0.043861173 -0.024349611
000110 7e cc 8f 3d 9b d9 9d be aa b5 33 be e6 a8 b7 3c
       0.07021426 -0.30830082 -0.17549768 0.022419404
000120 74 c7 b4 bd 47 a0 20 3e 67 9a 83 be 10 9e 70 bd
       -0.08827105 0.15686141 -0.25703737 -0.05874449
000130 94 21 ea 3c 17 a2 b0 3e 55 65 34 3d 0d f8 a2 3e
       0.028580464 0.34498665 0.04404195 0.31829873
000140 78 2b 9f 3b 4a 41 18 3c 4e 15 bf 3d 1d c1 76 be
       0.004857477 0.00929291 0.093302354 -0.24097104
000150 c1 be 55 bd 7f 3c ea 3d 1e b4 99 bd a9 ed 0c 3c
       -0.05218387 0.1143732 -0.07505058 0.0086015845
000160 80 fd ae bd 5a c2 7a 3d 52 88 2e 3c f4 dc 10 3e
       -0.08544445 0.061220504 0.0106526185 0.14146787
000170 30 1f 36 be 79 a5 b3 bd 8e e0 f4 be c2 91 29 be
       -0.17785335 -0.08771796 -0.47827572 -0.16559508
000180 d6 3d 33 be 1a 0e 10 be a7 a1 5b be 97 22 13 be
       -0.17504057 -0.1406788 -0.21448384 -0.14368664
000190 80 e9 97 3d 65 07 24 be ed f7 95 3d bb ef 39 3d
       0.074175835 -0.16018446 0.07322679 0.04539464
0001a0 a2 e7 67 3d 92 13 23 3e 4d 86 0d be f8 29 51 bd
       0.056617387 0.15925434 -0.13820763 -0.051065415
0001b0 93 44 61 be 5d 17 54 be a0 57 3e 3e 25 1c d1 3d
       -0.21998815 -0.20712037 0.18588114 0.10210446
0001c0 35 a7 a7 bb 21 e4 0e be 5b 69 03 3e 6c 82 a4 be
       -0.005116368 -0.13954212 0.12833159 -0.32130754
0001d0 86 d7 94 bd a6 16 e1 3d 0a 55 77 bd 9f ed 2e bc
       -0.0726767 0.10990648 -0.060383834 -0.0106767705

state_encoder.relation_propagator.linear.weight f4 [100, 320]
000000 6a e5 ab 3d 04 3a 17 be 4b 62 d0 bd 28 ba e7 3c
       0.08393367 -0.14768225 -0.10174998 0.028287008
000010 ad 63 19 3c 5e d1 ad 3e 24 76 8a bd 1b eb 8c bc
       0.009362143 0.33948797 -0.06760815 -0.01720195
000020 0b 64 86 be b3 b8 03 3e fd 2c 54 bc f8 9b 6d 3d
       -0.26248202 0.12863426 -0.012950179 0.05801007
000030 4e 9f 90 ba f4 5f 5c bd f2 c0 31 be 9e 1f 63 3d
       -0.0011033805 -0.053802446 -0.17358759 0.055450074
000040 d8 4f f8 bb d0 54 ac 3c 93 39 d1 3d 9f d1 86 bd
       -0.0075778775 0.021036536 0.102160595 -0.06582951
000050 84 bb ce bc dc 56 80 bd 84 46 63 bd b5 8a 15 bd
       -0.025235899 -0.06266567 -0.05548717 -0.036509234
000060 1f 6b 7d 3e c8 d2 8d 3d 1e 91 58 3d bc b9 ea 3d
       0.24747895 0.06924969 0.05287277 0.11461207
000070 56 24 c6 3d 26 27 1f 3b 12 71 3f 3e da 35 f7 be
       0.09674899 0.002428481 0.18695477 -0.48283273
000080 d2 dc d8 bd 34 16 61 3d 1d 17 93 3e be 9a 6d 3c
       -0.10588993 0.054952815 0.28728572 0.014502225
000090 0e 36 05 3e 3e 18 70 3d c2 e4 6f be e8 0e 57 3e
       0.13008901 0.05861687 -0.23427108 0.2100178
0000a0 7a f3 83 be 87 26 9d be 93 f8 57 be 8d 5c 3d bb
       -0.25771695 -0.30693457 -0.21090917 -0.0028894276
0000b0 ac 77 4c 3d 43 45 80 3b 0b 56 91 3d 2e 08 71 be
       0.049918815 0.0039145066 0.070964895 -0.23538277
0000c0 70 4d f6 3d 50 e6 07 bd 9e 5d e7 3d f0 f1 66 3d
       0.12026489 -0.033178627 0.11297153 0.056383073
0000d0 f3 67 02 be 96 9c fe bd b3 6d 80 3b 89 e8 ca bd
       -0.12734966 -0.1243221 0.003919327 -0.09907634
0000e0 6c 4c 17 bf 49 af 96 bd c7 83 13 be 5a 34 00 3e
       -0.59100986 -0.07357652 -0.14405738 0.1251997
0000f0 b4 4d a0 3c 32 52 56 bc 34 e3 89 3d 63 da f0 bd
       0.019568302 -0.01308112 0.06732789 -0.11760404
000100 36 56 9f be e2 d9 b8 3d 4f 8c a8 3d d6 5e f5 3d
       -0.3112046 0.09025933 0.08229887 0.11980979
000110 df bd 26 bd 08 1a b6 3d da 4a 3e bd f6 26 a6 bd
       -0.04070842 0.08891684 -0.046458103 -0.081129
000120 46 e9 37 3e 02 d1 b4 bb 05 62 1d bd 2c 2a c3 3d
       0.1796008 -0.0055180797 -0.038423557 0.09529528
000130 4a 33 26 3e e2 af 94 bb 25 cc 67 bd 47 71 c8 bd
       0.16230503 -0.0045375684 -0.05659117 -0.09787231
000140 b0 78 86 bd fa f0 ba bd db 07 ee bd e4 97 f7 bd
       -0.06565988 -0.09127994 -0.11622592 -0.12089518
000150 f6 45 ae 3d ab 2d f2 3d b5 d0 03 be ef 10 35 3d
       0.08509438 0.11825117 -0.12872584 0.044205602
000160 4b e0 bd 3d ce 28 19 3c 91 34 e9 3d 7e 4d e4 bc
       0.09271296 0.0093481075 0.11386979 -0.027868982
000170 95 43 11 3e e2 76 2c be 77 5a c8 bd 8f b2 b5 bd
       0.14185937 -0.16842225 -0.0978288 -0.08871948
000180 c5 9d a1 bd f0 af 22 3d e1 ff 8c 3d 85 ba 61 bd
       -0.0789142 0.03971857 0.068847425 -0.05510952
000190 bb f1 ba bd da ca 12 3e 19 a2 42 be 1e 00 c4 bd
       -0.09128138 0.14335194 -0.19007148 -0.09570335
0001a0 60 3e 37 3e bd db f0 3d 3c bd 03 be 4d 0b d6 3d
       0.17894888 0.11760662 -0.12865156 0.10451374
0001b0 4d b9 13 3d 60 fa 09 be e5 c5 0e bd 75 7c 11 bd
       0.03606539 -0.13474417 -0.034856696 -0.035519082
0001c0 09 ed 33 be ff 48 ef bd bb bd 77 be b4 b6 0c be
       -0.1757089 -0.11683845 -0.2419347 -0.1374157
0001d0 a9 3f b7 3d 33 1d 10 be f2 b6 46 3c 8a 06 75 3c
       0.08947689 -0.14073639 0.0121285785 0.014955172
0001e0 97 58 83 bc 28 d2 d0 3c e2 a6 1b bd ee 81 ef bf
       -0.016033454 0.025490835 -0.03800095 -1.8711526
0001f0 a5 56 b3 3c 2b 62 1d ba 39 17 c4 bc e5 53 bb 3c
       0.021891901 -0.0006003703 -0.023936855 0.022867152
000200 3f 9f 0d be 0c 36 39 3c c2 0f 26 3e 28 83 62 bf
       -0.13830279 0.01130439 0.16216949 -0.8848138
000210 96 18 7c be b6 47 4a 3d 39 58 6a 3d 3c 4c d4 3d
       -0.24618754 0.049384795 0.057213042 0.10366103
000220 06 99 bc be d2 93 35 bd 57 1e f2 3d eb d3 f5 3d
       -0.36835498 -0.044330426 0.11822193 0.12003311
000230 68 34 82 bd 9e df 84 be a4 c9 ac 3c 34 e3 1c bd
       -0.06357652 -0.25951856 0.021092243 -0.038302615
000240 bc 0f fa bb a5 01 72 3b c4 a2 eb 3c 72 df 11 3d
       -0.00763127 0.003692725 0.028764136 0.035613485
000250 6b b0 ba 3b ae 68 df bd a9 18 ca 3c b2 01 32 3b
       0.0056973 -0.10908638 0.024669962 0.0027161655
000260 af 33 25 bd 13 92 42 3d 79 af 9a be 71 51 23 bc
       -0.040332492 0.04750259 -0.30212 -0.009968148
000270 c5 37 27 bf 45 19 69 3d fe 9c a0 3c 0d c7 c8 3d
       -0.6531947 0.056908865 0.01960611 0.09803591
000280 be 5a b5 3d f7 f4 f6 3b 0b 75 c6 3d f7 ef 4b bd
       0.08855198 0.0075365263 0.09690293 -0.049789395
000290 67 b9 cf bd ac 78 e8 bc 74 47 92 3d f3 9b bb bd
       -0.101427846 -0.028377853 0.07142535 -0.09160604
0002a0 7c 7e 39 bb 38 91 bf bd 8e 48 81 be 67 a7 1c 3d
       -0.002830415 -0.0935387 -0.25250667 0.038245585
0002b0 11 20 a6 bd 70 8c b7 bc cb f8 bf 3b 8b 86 1b bd
       -0.08111585 -0.022405833 0.005858516 -0.037970107
0002c0 00 9e 70 3e 05 39 4e 3d 4f 31 01 be 72 41 8c bd
       0.23497772 0.050347347 -0.12616466 -0.0684842
0002d0 85 1c 9b 3d c4 45 c0 3d 1f 7f 53 bd 64 56 9d 3d
       0.07573799 0.09388307 -0.051634904 0.07682493
0002e0 7a d8 1f bd 5a c9 98 be 22 aa e8 3d 38 f4 9b 3c
       -0.039024808 -0.2984112 0.11360575 0.019037351
0002f0 88 74 93 3d 59 0f f3 be f8 d1 82 be 07 d3 cb bc
       0.07199961 -0.47472647 -0.25550818 -0.0248809
000300 7b 09 a2 3e 4a 81 e4 bd fc 5d 07 be 91 3b 97 be
       0.31647858 -0.111574724 -0.13219446 -0.29537633
000310 fe 20 2f 3d e7 93 2e 3d b0 2e 92 ba 24 94 4f 3c
       0.042756073 0.04262152 -0.001115283 0.012669597
000320 8b b4 ab bd 00 7e 55 bd 5a cb c2 bd 3f df a2 3d
       -0.08384045 -0.052122116 -0.095114425 0.07952737
000330 e0 71 a6 ba c3 b0 7d 39 ca 25 53 be 40 78 70 3a
       -0.0012698732 0.00024193809 -0.20619884 0.0009173192
000340 88 02 70 3e 02 e7 51 3d 3e 7c 8e 3d 87 92 9c 3d
       0.23438466 0.051245697 0.06957291 0.076451354
000350 6c 9e f4 3c 33 fb 06 bb a2 67 07 3e 8c e2 01 3e
       0.029860698 -0.0020596504 0.13223127 0.12684077
000360 01 d5 8a bd c8 67 9f bd 27 00 13 be 2a 75 b6 bd
       -0.067789085 -0.077834666 -0.14355527 -0.08909066
000370 ae 00 1f 3e 5d 9b 6f 3c b5 69 ea bc 1b ae 51 bf
       0.15527603 0.014624444 -0.028614858 -0.8190629
000380 de fc 95 bd 0d 75 1c bd 64 36 d7 bd 86 5d ac 3d
       -0.07323621 -0.038197566 -0.10508421 0.08416276
000390 ac 0d 11 3e 63 32 19 be 1d bb 54 be 2c 7f 69 bf
       0.14165372 -0.14960627 -0.20774503 -0.91209674
0003a0 05 0a 0e bf 98 2f a2 bd d4 ec 1d 3d c2 38 85 be
       -0.5548404 -0.07919234 0.038555935 -0.26019865
0003b0 66 4e ea be 10 76 33 be 3d 20 cd 3d cb 8b 38 3d
       -0.45762938 -0.17525506 0.100159146 0.045055192
0003c0 51 f7 0a 3d 7d 42 f9 be e2 33 e3 bc ff c8 f3 3d
       0.033927266 -0.4868354 -0.0277347 0.11903571
0003d0 2a 8f 11 3e 65 b4 5c 3d d4 85 ae bd f7 3d 8e bd
       0.14214769 0.053882975 -0.085216194 -0.069454126
0003e0 0a 6f 46 bd 13 aa 51 bd b7 e8 0a be f9 81 ff 3d
       -0.04844574 -0.051187586 -0.13565336 0.12475962
0003f0 68 4e 8a 3d b9 69 32 bd 51 4b 15 be 41 b2 a7 bd
       0.06753236 -0.043557856 -0.14579512 -0.08188296

state_encoder.relation_propagator.linear.bias f4 [100]
000000 ad d2 ad 3c bf 51 22 bd 9f 59 2f 3c 7d bd f2 bd
       0.021218622 -0.03962874 0.01070252 -0.11852548
000010 8f b8 60 bd 57 0f b8 bc b6 35 39 be a2 96 3b bd
       -0.05486351 -0.022468252 -0.18086895 -0.04579795
000020 ce 93 ee ba 07 10 fe bd 82 68 21 be c9 ce 2a be
       -0.0018202008 -0.12405401 -0.15762523 -0.16680445
000030 5c 47 13 bd 1e 5a 1c 3b e9 ce 38 bd 47 36 a5 3d
       -0.035956725 0.0023857425 -0.0451192 0.08066993
000040 db 2e 87 bd b0 43 11 bf 9f 39 7c be 27 31 7e be
       -0.06600734 -0.5674391 -0.24631356 -0.24823438
000050 74 10 f9 3d c3 64 86 bc 80 c4 11 3d 78 f0 0c be
       0.12161341 -0.016405469 0.035587788 -0.13763607
000060 ba 40 54 3d 86 c7 46 3d 98 df 04 bf b6 e8 05 bd
       0.05181954 0.048530124 -0.51903677 -0.032692634
000070 89 7f 8e be 90 86 5a be b1 bb ac bd aa 53 fb bd
       -0.27831677 -0.21340394 -0.08434237 -0.12271817
000080 69 48 44 bd 8c ec bb 3d 5f 3c 11 be 9a a0 14 be
       -0.04792062 0.09175977 -0.14183186 -0.1451439
000090 32 18 4f be 5b f9 83 bd b8 f0 1f bd f2 04 dd 3c
       -0.20224074 -0.06444045 -0.039047927 0.026979897
0000a0 58 20 90 bd 87 6f 30 3d 41 4e df 3d 9e c0 63 bb
       -0.07037419 0.04307511 0.109035976 -0.003475226
0000b0 56 9c ea ba 8d 7d 85 bd 57 dd 50 bd 22 4d 12 bf
       -0.0017899375 -0.065180875 -0.050992336 -0.57148945
0000c0 1d 5a 85 bc a7 60 ca 3d 97 62 83 3d c6 61 59 bd
       -0.01627832 0.09881716 0.06415289 -0.05307176
0000d0 88 02 85 3d 6a 31 16 3e 77 e3 9d 3a 84 f7 eb bc
       0.064946234 0.14667287 0.0012045939 -0.028804548
0000e0 b8 71 bb 3d 96 95 9f bd d6 4b 9c be b9 e6 f2 3d
       0.091525495 -0.07792203 -0.30526608 0.11860413
0000f0 07 df b4 bd 27 72 0e bd af 43 bb 3b 1a e5 06 3d
       -0.088316016 -0.034776833 0.0057148556 0.032933332
000100 55 f7 be bd 03 46 15 bf dc d8 02 bd c2 21 da be
       -0.093245186 -0.58309954 -0.031945094 -0.4260388
000110 e3 9d b4 3c 95 4d 7e bc f1 29 e6 3d 56 62 1d be
       0.022047943 -0.015521427 0.112384684 -0.15369543
000120 f1 06 0a 3e 81 ef 7b bd 9f 39 fc bd 81 1a 2f be
       0.1347921 -0.061507706 -0.12315678 -0.17099954
000130 5f 23 9c 3c a5 75 06 3d 5e aa b4 3c ec fb 5d bd
       0.019059835 0.03282704 0.022053894 -0.05419533
000140 a2 1d 54 bd 8e e5 52 be 2b 9c 32 bc 5b 0f e1 bb
       -0.051786073 -0.2059538 -0.010901491 -0.0068682856
000150 fd f7 32 3e d9 f5 4d 3d f1 48 40 3e b6 6c 12 bf
       0.17477413 0.050283287 0.18777825 -0.5719713
000160 5f 52 92 bb 06 76 00 be 9a 35 ab 3b ba 72 19 bf
       -0.004465386 -0.12545022 0.0052248957 -0.59940684
000170 09 48 6b bd 3a 1e 00 be 34 70 06 be 3e 7b 58 bd
       -0.057441745 -0.1251153 -0.1312874 -0.052851908
000180 ca a7 29 3a cf 0a ab bd 34 74 0f be 75 1d 00 bd
       0.0006471841 -0.08351671 -0.14009172 -0.031278092
