dump_Soft/train_Soft_CKO_demo/net_best.pth (torch_old, 812453 bytes, 32 tensors)

state_encoder.obj_encoder.model.0.weight f4 [100, 20]
0.14727914 0.12068071 0.122595176 -0.013843923 -0.28758898 -0.3226741 0.2004444 0.06492709
0.11828979 0.06726424 0.08391275 0.235297 -0.034091026 0.04714509 -0.01944517 0.0021896318
0.043211862 -0.030046629 -0.051695652 -0.004783293 -0.05872414 -0.040711984 -0.02145335 0.0521191
-0.2829137 0.43159208 0.229483 -0.011057893 -0.32730705 -0.3363099 0.31312972 -0.02510456
-0.019197347 0.011972682 -0.0007493666 -0.010177401 -0.008176181 0.022779597 -0.0294335 -0.0015477071
0.017999994 0.029003045 0.019884914 -0.18254775 -0.025239164 -0.012486378 -0.1633029 0.054505337
0.04698928 -0.06369188 0.12902348 0.0410729 -0.10101942 -0.08527425 0.13510902 -0.11059651
-0.052993108 0.07742758 0.0568315 0.11230041 -0.1918948 -0.12094687 -0.13050157 0.27689442
0.34930506 0.07701036 -0.32688475 -0.11025939 0.3841067 -0.11637497 -0.27894595 -0.009455579
-0.01217826 0.010276461 1.8893881e-05 0.0019973672 0.0064413566 -0.0033781873 -0.0051517263 -0.0049998094
0.217363 0.18182117 0.18103746 -0.006945184 0.122537136 -0.22352794 -0.06484861 -0.0954425
0.030223746 0.16395766 0.082820036 0.1910051 0.017112426 0.101525046 -0.042462606 0.041380875
0.026159769 -0.013389286 -0.0597428 -0.07492687 0.089994036 0.07115091 0.069448054 0.12958932
0.23032323 -0.17071728 -0.30561736 0.15583502 0.20102213 0.2748182 -0.12627019 -0.18602288
-0.023787739 -0.010955047 0.035758696 -0.01590996 0.0055352724 0.017488625 -0.022186423 0.018515844
0.14110462 0.09886933 0.08968045 0.17404135 -0.040130224 -0.21021123 -0.040573485 -0.10053595
0.11397189 0.07114696 -0.17144775 0.14337225 -0.03566293 0.08344074 -0.030879082 0.030884627
0.06407303 0.06286279 0.032723144 0.052204188 -0.06788144 0.04265625 0.032567207 -0.26305103
0.1280004 0.20041722 0.15062797 -0.3236106 -0.042279817 0.12627153 -0.27447534 -0.15975516
-0.014125074 -0.008425582 -0.013462759 0.01524525 0.053959012 -0.01684321 0.0005841437 0.03882422
0.004911903 -0.0068657985 -0.003278415 -0.03335437 -0.038236022 0.026253317 -0.06554324 0.05491105
0.093538865 0.072114415 -0.00055942195 -0.1652586 0.18213357 0.12321165 -0.029983029 -0.017859899
0.08232771 -0.4039999 -0.21526814 0.36524805 -0.11104076 -0.07780374 -0.07197781 -0.115981944
-0.23663324 0.42270184 0.25256744 0.114671744 -0.31125996 -0.26292178 0.29824707 -0.2727329
0.016422674 -0.018874818 -0.029318027 -0.0130331395 -0.034593534 0.0035447888 0.01699207 0.026191445
0.050119758 0.03441578 0.040735368 0.0438708 0.01614693 0.007721854 -0.06991371 -0.11259167
0.112891845 0.09693204 -0.14019746 -0.012650538 0.017243674 -0.009252726 -0.056903 -0.08087907
0.0423364 0.13027282 -0.058942225 0.10467823 0.09667488 0.07436025 0.07288001 0.14612047
0.1330504 0.15001713 0.06582733 0.019770384 -0.0852155 -0.011889853 0.08283484 -0.12180215
0.09513433 0.009172941 -0.023869365 0.0507797 0.026017928 -0.0016185963 -0.034985624 -0.045243718
-0.0018969643 0.016940564 0.009975478 0.036622915 0.18643159 -0.2696356 -0.27926832 -0.029650463
0.14226249 0.14516053 -0.07017946 0.12573038 -0.07363468 -0.009807673 0.06305541 -0.059810903
00000000: 58d0 163e 7327 f73d 2e13 fb3d 9fd1 62bc
00000010: dd3e 93be 8a35 a5be 4c41 4d3e 7ff8 843d
00000020: eb41 f23d d5c1 893d 73da ab3d b2f1 703e
00000030: 08a3 0bbd 361b 413d 7a4b 9fbc ed7f 0f3b
00000040: ecfe 303d 5924 f6bc d2be 53bd 2cbd 9cbb
00000050: b988 70bd 9cc1 26bd f0be afbc d67a 553d
00000060: 11da 90be a3f9 dc3e 97fd 6a3e 2a2c 35bc
00000070: ca94 a7be d030 acbe 8a52 a03e 14a8 cdbc
00000080: c143 9dbc 1129 443c 2471 44ba 1dbf 26bc
00000090: 64f5 05bc 479c ba3c 861e f1bc 6fdc caba
000000a0: b974 933c cb97 ed3c b0e5 a23c cced 3abe
000000b0: 5dc2 cebc aa93 4cbc e038 27be fd40 5f3d
000000c0: d577 403d e370 82bd bb1e 043e 0f3c 283d
000000d0: 45e3 cebd 44a4 aebd 055a 0a3e 6c80 e2bd
000000e0: 4d0f 59bd 5a92 9e3d 26c8 683d c2fd e53d
000000f0: 1280 44be feb2 f7bd 34a2 05be 1bc5 8d3e
00000100: 1dd8 b23e 9cb7 9d3d 705d a7be adcf e1bd
00000110: a2a9 c43e 0056 eebd 01d2 8ebe 93eb 1abc
00000120: 5387 47bc 9a5e 283c 4d7e 9e37 43e6 023b
00000130: 0412 d33b 9464 5dbb d0cf a8bb 71d5 a3bb
00000140: 6894 5e3e 542f 3a3e e261 393e 6d94 e3bb
00000150: c0f4 fa3d 82e4 64be 59cf 84bd 5c77 c3bd
00000160: ca97 f73c 84e4 273e 8d9d a93d d796 433e
00000170: 5c2f 8c3c 5dec cf3d 45ed 2dbd fe7e 293d
00000180: 034d d63c bc5e 5bbc deb4 74bd 4273 99bd
00000190: cb4e b83d 91b7 913d c83a 8e3d 10b3 043e
000001a0: dad9 6b3e 83d0 2ebe e179 9cbe 3793 1f3e
000001b0: bfd8 4d3e f9b4 8c3e f94c 01be c87c 3ebe
000001c0: 81de c2bc cc7c 33bc b677 123d 9b55 82bc
000001d0: 3b61 b53b 4e44 8f3c 4dc0 b5bc 8aae 973c
000001e0: bb7d 103e 017c ca3d 62aa b73d e537 323e
000001f0: 975f 24bd 9d41 57be 6230 26bd cbe5 cdbd
00000200: 186a e93d 7fb5 913d 0090 2fbe 2dd0 123e
00000210: 4b13 12bd fbe2 aa3d 21f6 fcbc c201 fd3c
00000220: b938 833d 35be 803d b408 063d 0fd4 553d
00000230: 6d05 8bbd 52b8 2e3d 3165 053d a0ae 86be
00000240: 8912 033e 2c3a 4d3e 383e 1a3e 4ab0 a5be
00000250: 9a2d 2dbd 534d 013e 0888 8cbe db96 23be
00000260: db6c 67bc 740b 0abc e792 5cbc 37c7 793c
00000270: 2004 5d3d c6fa 89bc 3821 193a 2506 1f3d
00000280: 07f4 a03b 7efa e0bb adda 56bb 989e 08bd
00000290: 609d 1cbd 3211 d73c 893b 86bd 69ea 603d
000002a0: 4e91 bf3d b9b0 933d 2ca6 12ba 8d39 29be
000002b0: 3981 3a3e 6456 fc3d f89e f5bc ec4e 92bc
000002c0: 6e9b a83d 13d9 cebe 406f 5cbe cb01 bb3e
000002d0: 5769 e3bd 9157 9fbd 1a69 93bd f187 edbd
000002e0: fc4f 72be 606c d83e 8550 813e 05d9 ea3d
000002f0: 775d 9fbe af9d 86be d7b3 983e a6a3 8bbe
00000300: d888 863c 5d9f 9abc 5c2c f0bc f388 55bc
00000310: f3b1 0dbd b04f 683b f432 8b3c 718f d63c
00000320: 604a 4d3d 90f7 0c3d 21da 263d deb1 333d
00000330: 9146 843c 9b07 fd3b eb2e 8fbd 7696 e6bd
00000340: d733 e73d 4e84 c63d ec8f 0fbe 3444 4fbc
00000350: 9b42 8d3c bf98 17bc 1f13 69bd eda3 a5bd
00000360: ef68 2d3d 3d66 053e 676d 71bd 8a61 d63d
00000370: 7bfd c53d 304a 983d 1d42 953d 9ba0 153e
00000380: 5d3e 083e 179e 193e 7bd0 863d 80f5 a13c
00000390: 7785 aebd a8cd 42bc 50a5 a93d 6873 f9bd
000003a0: cad5 c23d 1a4a 163c b089 c3bc 60fe 4f3d
000003b0: 8d23 d53c 1427 d4ba 164d 0fbd 7a51 39bd
000003c0: 8fa3 f8ba f0c6 8a3c 3070 233c e901 163d
000003d0: ece7 3e3e ad0d 8abe 42fc 8ebe 87e5 f2bc
000003e0: 42ad 113e f6a4 143e 40ba 8fbd 77bf 003e
000003f0: c7cd 96bd 5db0 20bc 3223 813d 47fc 74bd

state_encoder.obj_encoder.model.0.bias f4 [100]
-0.03704897 -0.090252064 -0.014129632 -0.4744048 -0.22029556 -0.039752737 -0.2827284 -0.25999707
-0.019790372 0.27327722 -0.12919258 -0.028186673 -0.113552414 -0.23306301 -0.4641699 -0.12692739
-0.27652982 -0.067838915 -0.049063712 0.16038164 -0.09192701 -0.027703414 -0.02017897 -0.418515
-0.0732714 0.2641453 -0.024826514 0.03118955 -0.1789286 -0.000804474 0.038098246 -0.14554617
0.10556797 -0.10138868 -0.13034177 0.12810029 -0.3989147 0.03685167 -0.11162228 -0.043404497
-0.41685188 -0.14573835 0.009739725 -0.056249302 -0.22120492 -0.34953597 0.008297388 0.15975225
0.022995066 -0.10946546 -0.115322374 -0.105726816 0.16701649 0.0053777196 -0.055092946 -0.1138109
-0.09303711 -0.027709229 -0.23342918 0.033445746 -0.16185571 -0.14861414 -0.17331569 -0.02698183
0.07704103 -0.07435902 0.16511002 0.008296626 -0.12860946 -0.30976406 -0.12797248 -0.6314223
0.045901977 -0.16035725 -0.17993158 -0.23827994 0.18050753 -0.33525524 -0.20604867 -0.23847865
-0.009295354 -0.15184513 0.04973647 -0.08900207 0.1329023 -0.18134241 -0.045500502 0.04246874
-0.022254702 0.08167181 -0.19891058 -0.00062361866 0.116248265 -0.24654007 -0.17199084 -0.2692286
0.019387031 0.20815445 0.019268796 -0.017539402
00000000: a9c0 17bd 13d6 b8bd f97f 67bc 30e5 f2be
00000010: 2995 61be c4d3 22bd c7c1 90be 561e 85be
00000020: 6b1f a2bc feea 8b3e 0f4b 04be bde7 e6bc
00000030: 2b8e e8bd 12a8 6ebe ada7 edbe 41f9 01be
00000040: 5195 8dbe 21ef 8abd 08f7 48bd 163b 243e
00000050: 3a44 bcbd 45f2 e2bc 5e4e a5bc 9947 d6be
00000060: 510f 96bd 0e3e 873e f960 cbbc 3a81 ff3c
00000070: 0f39 37be 56e3 52ba e80c 1c3d 0e0a 15be
00000080: 0534 d83d dea4 cfbd 5078 05be b92c 033e
00000090: 8c3e ccbe c7f1 163d 399a e4bd eac8 31bd
000000a0: 9c6d d5be 6f3c 15be 5e93 1f3c ab65 66bd
000000b0: 8b83 62be 61f6 b2be c5f1 073c 1896 233e
000000c0: 2660 bc3c 6d2f e0bd 232e ecbd 4d87 d8bd
000000d0: 5f06 2b3e 9537 b03b 24a9 61bd b015 e9bd
000000e0: 3e8a bebd 77fe e2bc 0f08 6fbe 68fe 083d
000000f0: 81bd 25be 4e2e 18be ab79 31be 0009 ddbc
00000100: b0c7 9d3d 8b49 98bd 9a12 293e 92ee 073c
00000110: 33b2 03be 6599 9ebe 380b 03be e4a4 21bf
00000120: b603 3c3d b134 24be fc3f 38be a8ff 73be
00000130: f7d6 383e 93a6 abbe 6cfe 52be bf33 74be
00000140: 8a4b 18bc 4a7d 1bbe 78b8 4b3d b846 b6bd
00000150: 8a17 083e d3b1 39be bc5e 3abd b4f3 2d3d
00000160: 7e4f b6bc 8d43 a73d 37af 4bbe 577a 23ba
00000170: 9213 ee3d 0075 7cbe 5e1e 30be 55d8 89be
00000180: 8dd1 9e3c 7126 553e 98d9 9d3c cbae 8fbc

state_encoder.obj_encoder.model.2.weight f4 [100, 100]
0.03391858 -0.004226305 0.05420983 0.0679775 0.045979988 -0.048381902 0.14012367 -0.07817378
-0.049756143 -0.037132714 0.045824632 0.017331108 0.04353011 0.046064835 -0.06341889 0.027828207
-0.049181033 -0.007039904 0.0861523 0.06483736 0.04879474 0.055508353 0.04929732 -0.46875125
-0.08848183 -0.023605645 0.12816375 0.01828165 0.13091518 -0.07882947 0.012972698 0.13499144
-0.021548858 -0.036496952 0.0495228 0.052002102 -0.054964583 -0.03180206 -0.008657085 0.12500381
-0.08221156 0.0016218717 -0.02947667 0.059898313 0.047876656 0.10983566 0.07324449 0.05689132
0.06920923 -0.07710195 0.07668985 0.09926624 0.0521764 0.030168043 -0.17641248 -0.030167228
0.08699035 -0.06251269 0.052017212 0.0381936 0.0030621209 -0.0891197 -0.15621881 0.06612907
0.030919304 -0.1362382 0.089905515 -0.04610787 0.14888763 0.024855038 0.002166156 -0.082425356
-0.08241219 -0.08338506 0.080767244 0.11655449 -0.05401181 -0.16116332 0.0344749 0.033475596
0.096039765 -0.084946014 -0.07179842 -0.07116766 -0.09856102 -0.018605225 0.061506666 -0.06727106
-0.04541944 -0.019561507 0.032379817 -0.07505482 0.010924356 0.029748572 0.2730979 0.017095707
0.009187809 -0.010704715 0.10404357 -0.094694436 0.09571127 -0.056816973 -0.015717043 -0.46189767
0.050965015 -0.07783566 0.0831814 -0.067161284 -0.003996906 0.19414617 0.0235998 -0.14241378
0.021377832 0.082923196 -0.0062147207 0.0050096735 -0.18880732 -0.32006246 0.013654988 -0.0012393758
0.044367336 -0.023469493 -0.07278348 -0.10772334 -0.01779819 0.02304365 -0.0061541884 -0.01724386
-0.07833421 -0.038656868 -0.023977384 0.039833777 0.15978712 -0.12321175 0.078469716 0.1503798
0.080386594 0.019786417 0.119779386 -0.033334143 -0.51197135 -0.117735535 -0.06293425 0.12552679
0.05092371 0.19701539 0.09188102 -0.020814396 -0.09257822 0.041172042 -0.010097247 -0.0928001
0.034106407 0.012041505 0.06637745 -0.18982337 -0.027033085 -0.0066922233 0.08396057 0.086690836
0.03560788 -0.090340644 0.0015940527 -0.05635268 0.0050408063 0.093791716 -0.07923167 0.040988136
-0.026951855 -0.060854517 -0.013004037 0.031784493 -0.054874204 -0.20875387 -0.025698204 0.23310909
-0.01421712 -0.01396316 0.1463148 0.052030433 0.050816707 0.016205424 -0.07538582 0.05217165
0.07209894 -0.23885262 0.06954702 -0.13259423 0.10221352 0.034586005 -0.020801697 -0.25160897
0.07887346 0.18249997 -0.00041694383 -0.0028102659 0.04206402 0.109586105 -0.016780188 0.00014689066
0.14036696 0.2043093 -0.036847945 -1.2774346 0.015654448 -0.10609049 0.12201856 -0.048278887
0.08046652 0.04597332 -0.055025414 0.03979744 0.024762344 0.21168773 -0.034856264 0.10239224
0.102864675 -0.040141378 0.028640624 -0.0004834732 0.06347105 0.12509893 0.09645427 -0.027935773
0.109416254 -0.07052336 -0.013774852 0.06914881 0.05513041 0.07980376 0.052023474 0.012443248
0.0032088556 0.012445531 0.021334656 0.04442047 0.050249975 0.08245533 0.014121374 0.07142236
0.107640825 0.05122196 0.03136947 0.09362202 0.01520909 -0.11465994 -0.034125227 0.022418987
-0.0111353 -0.0058282004 0.091813244 -0.041564237 0.059674516 -0.042316735 -0.06055877 -0.035314877
00000000: 35ee 0a3d d17c 8abb 200b 5e3d ca37 8b3d
00000010: 8355 3c3d 1a2c 46bd 947c 0f3e 9319 a0bd
00000020: 19cd 4bbd 7918 18bd 9cb2 3b3d f8f9 8d3c
00000030: a14c 323d 7bae 3c3d c3e1 81bd fbf7 e33c
00000040: 0d72 49bd ffae e6bb 9e70 b03d 73c9 843d
00000050: fedc 473d ba5c 633d fdeb 493d 2a00 f0be
00000060: f635 b5bd a060 c1bc 5c3d 033e 66c3 953c
00000070: a10e 063e 5871 a1bd 708b 543c 323b 0a3e
00000080: 3b87 b0bc d47d 15bd 6bd8 4a3d 2800 553d
00000090: 8b22 61bd e042 02bd 72d6 0dbc 0001 003e
000000a0: 895e a8bd fc94 d43a 0f79 f1bc ef57 753d
000000b0: 501a 443d 85f1 e03d 3501 963d df06 693d
000000c0: 92bd 8d3d a1e7 9dbd 910f 9d3d 194c cb3d
000000d0: ecb6 553d f922 f73c 79a5 34be 4321 f7bc
000000e0: ff27 b23d a706 80bd 0010 553d e470 1c3d
000000f0: ddad 483b 6484 b6bd d3f7 1fbe ae6e 873d
00000100: 7b4a fd3c 0782 0bbe 6220 b83d 9bdb 3cbd
00000110: 0076 183e cb9c cb3c 11f6 0d3b a0ce a8bd
00000120: b9c7 a8bd c9c5 aabd 4c69 a53d 1fb4 ee3d
00000130: 7d3b 5dbd ff07 25be 8e35 0d3d b51d 093d
00000140: 7fb0 c43d 2df8 adbd 0d0b 93bd 5ac0 91bd
00000150: 5cda c9bd fc69 98bc 6aee 7b3d 69c5 89bd
00000160: bc09 3abd 743f a0bc b3a0 043d 57b6 99bd
00000170: 12fc 323c 47b3 f33c 7dd3 8b3e 4c0c 8c3c
00000180: 7788 163c d462 2fbc cc14 d53d 28ef c1bd
00000190: 4504 c43d eab8 68bd 07c1 80bc da7d ecbe
000001a0: b1c0 503d 4d68 9fbd 035b aa3d db8b 89bd
000001b0: 7af8 82bb 41ce 463e 5e54 c13c ebd4 11be
000001c0: 9020 af3c a3d3 a93d dba4 cbbb 3028 a43b
000001d0: b556 41be 3adf a3be 2cb9 5f3c 8d72 a2ba
000001e0: 86ba 353d 1843 c0bc 810f 95bd 0e9e dcbd
000001f0: 82cd 91bc 09c6 bc3c 13a9 c9bb ff42 8dbc
00000200: b06d a0bd aa56 1ebd 386c c4bc be28 233d
00000210: 3c9f 233e 7156 fcbd bbb4 a03d 2afd 193e
00000220: baa1 a43d 2017 a23c e54e f53d 6289 08bd
00000230: 8e10 03bf 541f f1bd ace3 80bd 188a 003e
00000240: 6195 503d 67be 493e 1e2c bc3d f482 aabc
00000250: a699 bdbd 04a4 283d ec6e 25bc fb0d bebd
00000260: 29b3 0b3d bc49 453c e7f0 873d 0f61 42be
00000270: 7d74 ddbc 704a dbbb 85f3 ab3d f78a b13d
00000280: 92d9 113d 8404 b9bd 88ef d03a 11d2 66bd
00000290: 592d a53b df15 c03d 3744 a2bd 2de3 273d
000002a0: 23ca dcbc 9642 79bd e20e 55bc 7530 023d
000002b0: c6c3 60bd 93c3 55be 0a85 d2bc 26b4 6e3e
000002c0: ecee 68bc bdc5 64bc 8cd3 153e dd1d 553d
000002d0: 2e25 503d 3dc1 843c e163 9abd f1b1 553d
000002e0: 9ca8 933d c895 74be ab6e 8e3d c8c6 07be
000002f0: 5255 d13d 0eaa 0d3d 5268 aabc e4d2 80be
00000300: 6988 a13d 46e1 3a3e 4199 dab9 702c 38bb
00000310: 524b 2c3d ae6e e03d 9b76 89bc a906 1a39
00000320: 5bbc 0f3e 7536 513e dfed 16bd fa82 a3bf
00000330: c23d 803c f945 d9bd dee4 f93d 15c0 45bd
00000340: a1cb a43d 854e 3c3d 5462 61bd a402 233d
00000350: 66da ca3c abc4 583e 71c5 0ebd 06b3 d13d
00000360: b7aa d23d 496b 24bd be9f ea3c ad7a fdb9
00000370: 1cfd 813d ef19 003e d189 c53d 90d9 e4bc
00000380: a115 e03d 8d6e 90bd ebaf 61bc e49d 8d3d
00000390: 6dd0 613d 2770 a33d 9116 553d c4de 4b3c
000003a0: aa4b 523b 57e8 4b3c 04c6 ae3c 3df2 353d
000003b0: ebd2 4d3d 57de a83d 565d 673c e345 923d
000003c0: cb72 dc3d 1ece 513d 467d 003d e7bc bf3d
000003d0: 8c2f 793c d5d2 eabd e5c6 0bbd 06a8 b73c
000003e0: d570 36bc 7dfa bebb 9508 bc3d 433f 2abd
000003f0: 446d 743d 5054 2dbd 790c 78bd 55a6 10bd

state_encoder.obj_encoder.model.2.bias f4 [100]
0.050917976 0.015473371 -0.018165588 0.07816301 -0.03301819 0.049663756 0.13216211 0.0621873
-0.07787374 -0.17694843 -0.14297032 -0.4250962 0.051166967 0.048617724 -0.012693245 0.04120491
0.10185732 0.043844145 -0.039084364 -0.031033069 -0.07313279 0.032385167 0.0025538262 -0.11281954
-0.07248705 0.047745094 0.14098433 0.013708224 -0.077457085 0.020736266 -0.020296266 0.03813538
-0.032336835 0.20960616 0.013080387 0.095455684 0.123533405 0.024085626 0.00967274 -0.005268062
-0.02076221 -0.13814881 -0.1043911 0.10424252 0.08763542 -0.022527035 -0.118716605 0.08727236
-0.014466523 -0.06221862 0.18964925 0.08081313 0.02503364 0.118840694 0.16264948 -0.0006221156
-0.034095444 -0.023195595 -0.02212252 0.019474305 0.013112046 -0.09546416 0.05501907 0.018500568
-0.116073936 -0.0014563302 -0.03276592 -0.05721099 0.23992011 0.10735855 -0.10275119 0.0099425465
-0.0029286053 -0.19176766 -0.061622392 0.062112372 0.2127998 -0.087469995 -0.0030769682 -0.08510396
0.002006598 0.12817907 0.17161565 0.0060603055 -0.09996469 0.25139594 -0.09809286 0.013711319
0.10064529 -0.033872094 0.04603209 0.095931694 0.17284092 0.08127259 0.207045 0.110854216
-0.21768874 -0.99422514 -0.26335445 0.19023262
00000000: 5e8f 503d 0684 7d3c 00d0 94bc ee13 a03d
00000010: 153e 07bd 396c 4b3d 8155 073e 1cb8 7e3d
00000020: 447c 9fbd f831 35be d066 12be 36a6 d9be
00000030: 7494 513d 6123 473d 54f7 4fbc 7bc6 283d
00000040: 929a d03d eb95 333d ed16 20bd 1039 febc
00000050: a5c6 95bd 4fa6 043d 185e 273b ee0d e7bd
00000060: 1774 94bd 5c90 433d 325e 103e 7598 603c
00000070: d2a1 9ebd 1adf a93c 5b44 a6bc d833 1c3d
00000080: a173 04bd ffa2 563e 1f4f 563c 457e c33d
00000090: 15ff fc3d 384f c53c 697a 1e3c b59f acbb
000000a0: 8315 aabc e276 0dbe 00cb d5bd 1a7d d53d
000000b0: 337a b33d 9e8a b8bc b121 f3bd dabb b23d
000000c0: ff04 6dbc f4d8 7ebd 6a33 423e 5b81 a53d
000000d0: 5913 cd3c c062 f33d 968d 263e 7915 23ba
000000e0: aaa7 0bbd b004 bebc 493a b5bc 9488 9f3c
000000f0: e8d3 563c b782 c3bd ad5b 613d 818e 973c
00000100: 2cb8 edbd 55e2 beba 8f35 06bd 1256 6abd
00000110: 9ead 753e cdde db3d 376f d2bd 10e6 223c
00000120: d8ed 3fbb be5e 44be c367 7cbd 8b69 7e3d
00000130: 31e8 593e 7823 b3bd f6a6 49bb fc4a aebd
00000140: 2181 033b 6041 033e 03bc 2f3e 8795 c63b
00000150: 4aba ccbd f8b6 803e e9e4 c8bd 71a5 603c
00000160: 1e1f ce3d 77bd 0abd 258c 3c3d d677 c43d
00000170: 36fd 303e 3e72 a63d 9b03 543e 8907 e33d
00000180: cce9 5ebe 8a85 7ebf 65d6 86be 57cc 423e

state_encoder.relation_encoder.model.0.weight f4 [120, 60]
0.015748758 -1.252313 0.25292507 -0.04177488 -1.9409301 0.0424769 -0.8245218 0.18488964
0.062767744 -0.069208674 -0.5897368 -0.031967167 -0.3307248 -0.56270295 0.58236307 -0.6229798
-0.023444416 0.18155625 -0.044617876 -0.8651293 0.041829806 -1.3409636 -0.76621336 0.36603037
-0.7213875 -0.07383343 0.25087547 -0.13975935 -0.6779563 0.18256761 -0.06309322 -1.3725903
-0.10881214 -0.18317065 -0.0034802705 -0.3728679 -0.015924908 0.029796705 0.112897515 0.08718429
-0.17776357 -0.207775 -0.21319132 -0.059833847 -0.04697823 -0.0808911 0.05992325 -0.023719357
-0.06949976 0.071418054 0.08500444 0.13002166 -0.034821916 0.01763351 0.018578546 0.03633345
0.017132882 -0.008463627 -0.019333653 0.04009682 -0.023181133 0.12062902 0.212685 -0.44767162
0.45513514 -0.48221922 0.7650218 -0.20292675 -0.9006161 0.88833606 0.14999482 0.107466064
-0.5787624 0.11333978 -0.4424163 0.6514326 -0.47893342 -1.147124 1.4307835 0.10982554
0.035103887 -0.45364133 -0.40021262 -0.38395035 0.72528917 -0.41523093 -0.591335 -0.12499868
0.09655038 0.43629396 0.016428277 0.5300517 -0.09689039 0.20512494 0.061342344 0.09398726
0.3023442 -0.057027157 -0.19415031 0.020369165 0.06642239 0.36136806 -0.057713907 0.23600268
0.0022926955 0.009800989 -0.00375063 -0.00434515 0.009610101 -0.023986053 0.0015420394 -0.012111833
-0.04102306 0.048982777 0.013422463 -0.03238226 -0.068802714 -0.04071306 -0.041112877 -0.0047602695
-0.0011142641 0.24067153 0.22001709 0.28229076 0.3164303 -1.4054965 0.07797318 -0.14986986
0.35881847 -0.0476223 0.38953996 0.43552923 0.18925962 0.35685614 -1.390765 0.10174316
0.26833054 0.41118497 -0.121480115 0.21468662 0.29281422 0.13994582 0.5875826 -0.77196014
0.30229372 0.033047147 0.37368125 -0.052058876 0.19431017 0.04835522 0.08840725 0.48215082
-0.075494215 0.27248785 0.018362671 0.22597778 -0.16874686 0.08169383 -0.05733894 -0.116566
0.13294782 0.13254666 0.15717049 -0.013761467 0.0140844425 0.035015054 0.04124674 -0.058783393
-0.06998187 0.051783014 -0.021512568 -0.024827348 -0.08043822 -0.035123926 0.0070575075 0.03259543
0.06529997 0.051772717 0.13665953 -0.034279488 -0.08620963 0.06171258 0.22827625 0.12650393
0.34372297 0.096598014 -0.044736683 -0.3605216 0.576869 -0.15557292 -0.088414416 0.2663252
0.06612234 0.40311024 0.08646626 -0.58069265 -0.6580251 0.4015541 -0.15701959 0.07834055
0.3983463 -0.017972862 0.3963717 0.3105391 -0.27760607 -0.58109677 0.7545815 -0.037840497
0.22549057 0.26155597 -0.034083724 0.2599132 -0.043675065 -0.04654001 0.043194085 0.3305953
-0.47600096 0.16551186 -0.0068077194 -0.10377156 0.22459032 0.17025004 0.34911656 -0.23321079
-0.06332449 -0.0026257345 0.049697112 -0.0184621 0.0102291675 0.002252384 -0.029648086 0.020004442
0.04789808 0.04999989 0.04087145 0.02403355 -0.043129265 -0.024985155 -0.050144214 -0.020960964
1.3115209 0.3592797 0.087616794 0.109817035 0.16764082 0.18192053 0.27466008 0.1936763
0.07703521 0.97850376 0.34108102 0.025734372 0.22952321 0.19278567 0.53457177 0.23088537
00000000: 8a03 813c cb4b a0bf 657f 813e 231c 2bbd
00000010: 6670 f8bf 42fc 2d3d dc13 53bf b653 3d3e
00000020: 608c 803d 47bd 8dbd fef8 16bf 01f0 02bd
00000030: c354 a9be 4d0d 10bf bf15 153f 9b7b 1fbf
00000040: 810e c0bc e2e9 393e 3cc1 36bd 1d79 5dbf
00000050: bb55 2b3d b2a4 abbf 8f26 44bf 5568 bb3e
00000060: daac 38bf fb35 97bd c072 803e 131d 0fbe
00000070: 8b8e 2dbf 01f3 3a3e 0537 81bd 0ab1 afbf
00000080: e6d8 debd 1691 3bbe 4015 64bb 8be8 bebe
00000090: f474 82bc 3818 f43c d036 e73d ad8d b23d
000000a0: a707 36be f8c2 54be d34e 5abe 5614 75bd
000000b0: 3f6c 40bd 3caa a5bd 1572 753d 194f c2bc
000000c0: e455 8ebd a143 923d cf16 ae3d 6624 053e
000000d0: 6da1 0ebd 2774 903c 0932 983c 62d2 143d
000000e0: 425a 8c3c 06ab 0abc 9c61 9ebc 903c 243d
000000f0: 5ce6 bdbc 590c f73d 19ca 593e 3735 e5be
00000100: 7907 e93e 70e5 f6be 78d8 433f 08cc 4fbe
00000110: c78e 66bf fe69 633f 3e98 193e 2b17 dc3d
00000120: c629 14bf b01e e83d 6484 e2be 49c4 263f
00000130: c336 f5be f6d4 92bf ea23 b73f 36ec e03d
00000140: 18c9 0f3d ad43 e8be abe8 ccbe 2495 c4be
00000150: 8dac 393f 2699 d4be bb61 17bf 4fff ffbd
00000160: 35bc c53d ec61 df3e 9894 863c 78b1 073f
00000170: 786e c6bd 460c 523e 1c42 7b3d 647c c03d
00000180: dccc 9a3e 4f95 69bd 57cf 46be 3cdd a63c
00000190: 7608 883d 3c05 b93e 6b65 6cbd b0aa 713e
000001a0: 0c41 163b 5494 203c 21cd 75bb c361 8ebb
000001b0: af73 1d3c 667e c4bc 421e ca3a b670 46bc
000001c0: cc07 28bd 2aa2 483d e4e9 5b3c 43a3 04bd
000001d0: 70e8 8cbd bdc2 26bd fa65 28bd 09fc 9bbb
000001e0: 800c 92ba 9972 763e 294c 613e 6a88 903e
000001f0: 2703 a23e 4fe7 b3bf 67b0 9f3d 7c77 19be
00000200: 0eb7 b73e 9a0f 43bd c871 c73e b0fd de3e
00000210: 46cd 413e d9b5 b63e 9604 b2bf b85e d03d
00000220: 9f62 893e d686 d23e 91ca f8bd cfd6 5b3e
00000230: bfeb 953e f54d 0f3e d06b 163f 2e9f 45bf
00000240: 3ec6 9a3e 725c 073d 2653 bf3e b03b 55bd
00000250: 3ff9 463e 2010 463d dc0e b53d 79dc f63e
00000260: b69c 9abd 8783 8b3e 506d 963c b866 673e
00000270: facb 2cbe 184f a73d 3ddc 6abd 28ba eebd
00000280: 7923 083e 50ba 073e 4df1 203e c777 61bc
00000290: 6fc2 663c f26b 0f3d 57f2 283d dbc6 70bd
000002a0: a852 8fbd 6d1a 543d 203b b0bc b962 cbbc
000002b0: cbbc a4bd 1bde 0fbd aa42 e73b c982 053d
000002c0: febb 853d a10f 543d 7af0 0b3e a668 0cbd
000002d0: ad8e b0bd 55c6 7c3d 40c1 693e 3f8a 013e
000002e0: 75fc af3e 2ed5 c53d d03d 37bd 4a96 b8be
000002f0: b0ad 133f 824e 1fbe 9e12 b5bd c75b 883e
00000300: 266b 873d 7764 ce3e 3915 b13d 46a8 14bf
00000310: 5574 28bf 8098 cd3e bec9 20be 0371 a03d
00000320: 0cf4 cb3e d33b 93bc 3bf1 ca3e fbfe 9e3e
00000330: 6222 8ebe c2c2 14bf 412c 413f a3fe 1abd
00000340: 00e7 663e aaea 853e 609b 0bbd 5813 853e
00000350: a0e4 32bd bda0 3ebd 48ec 303d ca43 a93e
00000360: 66b6 f3be f17b 293e 4a13 dfbb 2f86 d4bd
00000370: 01fb 653e 0756 2e3e 68bf b23e cfce 6ebe
00000380: 45b0 81bd 8414 2cbb 338f 4b3d d43d 97bc
00000390: 3d98 273c bc9c 133b 8be0 f2bc 5be0 a33c
000003a0: c730 443d afcc 4c3d d268 273d 02e2 c43c
000003b0: 50a8 30bd abad ccbc 0564 4dbd 54b6 abbc
000003c0: ebdf a73f 82f3 b73e 6f70 b33d c1e7 e03d
000003d0: 09aa 2b3e 6049 3a3e 3fa0 8c3e 1453 463e
000003e0: a3c4 9d3d 397f 7a3f 2ca2 ae3e e4d0 d23c
000003f0: 2208 6b3e 9b69 453e b2d9 083f 376d 6c3e

state_encoder.relation_encoder.model.0.bias f4 [120]
0.030160941 -0.030367956 -0.25165126 -0.05039131 -0.072814666 -0.25487053 0.10566882 -0.023472076
-0.33164132 -0.3381028 -0.0168772 -0.20579782 -0.011088025 -0.1157972 -0.20611809 0.23534283
-0.33938736 -0.24922816 0.17303763 0.11021988 -0.044446636 0.2001244 -0.23907626 -0.102857836
-0.3393824 -0.011667919 0.17703122 -0.19126682 -0.24457099 -0.030123772 0.029637227 -0.027972743
-0.14372368 -0.07167956 -0.11117407 -0.34370527 -0.2821278 -0.23349121 -0.2793497 -0.102030784
0.30693424 -0.16569695 -0.056967776 -0.21203463 0.09941356 -0.10214827 -0.14582239 -0.05280141
-0.118129194 0.060194466 0.035769586 -0.11075465 0.15850902 -0.08664872 -0.045150336 -0.31070983
0.30309206 -0.08153223 -0.3288748 0.05408567 -0.09078138 -0.17488246 -0.15292744 -0.46179363
-0.22067381 -0.039547984 -0.18067569 -0.43332997 -0.009125019 -0.23282228 0.16221088 0.030974897
0.010125685 -0.026757114 -0.100660816 0.15758304 -0.079181805 0.08812182 0.12187717 -0.06176286
-0.3120492 -0.17344275 -0.05866026 -0.08956655 -0.030789929 0.030520795 -0.3611928 -0.04071055
-0.14336537 -0.101695254 -0.10703235 0.061877348 -0.009871361 -0.36849958 -0.06496836 -0.27098045
-0.019120948 -0.10897596 -0.12453974 -0.24629244 0.019503407 -0.20242722 -0.17359787 -0.1280594
-0.19284609 0.058812838 -0.047670957 -0.023796393 -0.20387813 -0.25785202 -0.3190387 -0.02897973
-0.00034593343 -0.11815265 -0.09009879 -0.2739147 -0.2280828 -0.31986222 -0.19893149 -0.09312666
00000000: 1414 f73c 38c6 f8bc 6fd8 80be 1e67 4ebd
00000010: db1f 95bd 647e 82be e568 d83d 8348 c0bc
00000020: e4cc a9be cf1b adbe 0e42 8abc aabc 52be
00000030: 8caa 35bc 1527 edbd 9f10 53be b6fd 703e
00000040: 2ec4 adbe ab35 7fbe c730 313e f6ba e13d
00000050: ad0d 36bd 69ed 4c3e 68d0 74be 21a7 d2bd
00000060: 88c3 adbe cd2a 3fbc ac47 353e 73db 43be
00000070: d170 7abe 21c6 f6bc c5c9 f23c 1827 e5bc
00000080: 4d2c 13be bccc 92bd 3baf e3bd 23fa afbe
00000090: 0e73 90be 5218 6fbe ed06 8fbe 84f5 d0bd
000000a0: 7c26 9d3e 76ac 29be 0b57 69bd 9b1f 59be
000000b0: 5699 cb3d 1d33 d1bd 7752 15be 4b46 58bd
000000c0: b8ed f1bd 798e 763d 2183 123d 55d3 e2bd
000000d0: 3050 223e e274 b1bd 8fef 38bd 5c15 9fbe
000000e0: e22e 9b3e 5ffa a6bd 4762 a8be ef88 5d3d
000000f0: 97eb b9bd 6314 33be 0399 1cbe 3770 ecbe
00000100: 51f8 61be 11fd 21bd 0c03 39be 6ddd ddbe
00000110: 1b81 15bc f768 6ebe 9c1a 263e 11bf fd3c
00000120: 33e6 253c bc31 dbbc 4227 cebd 735d 213e
00000130: 122a a2bd 3679 b43d bd9a f93d 0dfb 7cbd
00000140: eac4 9fbe fa9a 31be be45 70bd ab6e b7bd
00000150: 293b fcbc bf06 fa3c 43ee b8be 1bc0 26bd
00000160: 5fce 12be 9a45 d0bd c733 dbbd 1a73 7d3d
00000170: 7dbb 21bc faab bcbe 220e 85bd f3bd 8abe
00000180: 89a3 9cbc ca2e dfbd b10e ffbd 1634 7cbe
00000190: 9cc5 9f3c 1549 4fbe a4c3 31be 0122 03be
000001a0: 7279 45be bbe5 703d 9f42 43bd a7f0 c2bc
000001b0: 6ec5 50be 2e05 84be 0a59 a3be e666 edbc
000001c0: 665e b5b9 04fa f1bd b785 b8bd 8c3e 8cbe
000001d0: 8a8e 69be fbc4 a3be b2b4 4bbe 31b9 bebd

state_encoder.relation_encoder.model.2.weight f4 [120, 120]
0.17018723 0.1791467 0.14807905 -0.024353517 -0.028118435 0.13704664 -0.112930514 0.16658625
0.09360926 -0.037597556 -0.11576452 0.082056805 -0.1643771 -0.14557607 0.15912043 -0.17007864
-0.024117336 -0.09314148 0.123932205 -0.022597969 -0.10015157 0.14121869 0.07535875 0.22946358
0.23247415 -0.0030829196 -0.19333906 0.043752544 -0.011473513 -0.40895075 0.19833621 -0.0013335658
0.0063314587 -0.1412153 0.1573487 0.064443015 0.18346223 0.16602594 -0.021950921 0.06749657
0.051067375 0.0674546 0.13126956 -0.03379955 -0.15359531 0.03962324 -0.11960915 -0.028628998
-0.04865541 -0.14477092 0.056644958 -0.054128934 -0.22897217 0.14843333 0.10656543 -0.22399588
-0.05154534 -0.06231911 0.11008747 -0.08000656 0.06828127 -0.06498765 0.19843961 0.10960729
0.03315456 0.078304306 0.103059694 -0.15911122 -0.044458564 -0.15371585 -0.13715695 -0.16128385
0.058729712 -0.05591789 -0.046406005 -0.100763164 0.057754222 0.16430342 -0.034409862 0.1194709
0.10693777 0.08925343 0.19186896 0.0057413685 0.028631562 -0.05187199 0.050635457 -0.060621697
-0.09131457 -0.20882615 0.055567168 0.26504123 0.16733073 0.0790584 0.07567065 0.072071716
0.009796786 0.08982501 0.051766716 0.017444203 -0.010594132 -0.00953048 0.1087264 0.24211088
0.24820007 -0.0111640915 -0.18307176 -0.08551567 -0.048599422 -0.054562695 -0.08307049 0.022412837
0.15808429 0.27357382 0.13357334 0.09733924 0.22176157 0.12015852 -0.102006294 -0.03243309
0.10199255 -0.18420653 0.04785021 0.08069673 0.0732402 0.07349834 -0.12023626 0.16403668
0.047939237 -0.097296774 0.13221821 0.1340124 -0.0066624866 0.2031267 0.025254615 0.04363257
-0.05799352 0.024693571 0.022101775 -0.10290798 -0.025921999 0.017910289 0.16110569 0.10667096
-0.14507793 -0.04992766 -0.048238095 0.023475034 0.106361635 -0.16985159 -0.15278754 0.23787858
-0.23006448 -0.07385518 0.18751933 0.18340625 0.18059751 0.089274876 0.03800043 -0.1606264
-0.095056444 -0.04182186 -0.007937033 -0.12491629 -0.06179039 -0.10084921 0.09084637 -0.07020264
0.016020915 -0.0014902741 0.07254064 0.08947614 0.05794862 -0.09177008 0.067874335 0.04606446
-0.0537533 -0.13550971 0.027960008 -0.11709487 0.18473972 -0.07060091 -0.12196298 0.24202307
-0.09530472 0.15679382 0.013081838 0.14246552 -0.059656385 -0.1559833 0.038259726 0.13615158
0.18960401 0.045182794 0.11700946 0.043209605 -0.018755004 0.30750623 0.09342937 0.2378579
-0.006423483 0.021023355 -0.1514491 0.013978256 -0.055643674 0.25272396 0.081210725 0.20437168
0.0021453304 0.0020888925 0.2627846 -0.019647833 0.033083748 0.1393107 -0.09333414 0.064782806
0.0047252565 0.093281716 0.097758606 0.0894814 0.13025846 0.120690845 0.014675411 -0.0037294426
0.15610594 0.036492035 -0.10196821 0.16770636 0.12931797 -0.41573688 -0.083383426 -0.17450307
-0.16104032 -0.09615894 -0.1885747 0.13939315 -0.01639441 0.056395013 -0.058034558 -0.010404267
0.058098685 0.12921874 0.20698573 0.14205971 0.041944463 -0.15422325 -0.1304534 -0.002355573
-0.12147336 0.05783938 -0.1144769 0.09277163 0.12900516 0.28847596 -0.3097014 0.11450638
00000000: 9045 2e3e 3c72 373e 09a2 173e 0781 c7bc
00000010: a258 e6bc f455 0c3e 1d48 e7bd 9695 2a3e
00000020: 36b6 bf3d e5ff 19bd f315 edbd 660d a83d
00000030: 7852 28be e511 15be 77f0 223e 1829 2ebe
00000040: b891 c5bc f6c0 bebd 2bd0 fd3d 601f b9bc
00000050: 441c cdbd a29b 103e b055 9a3d 80f8 6a3e
00000060: b40d 6e3e cf0a 4abb adfa 45be de35 333d
00000070: 67fb 3bbc fe61 d1be a618 4b3e 0bcb aeba
00000080: 2078 cf3b be9a 10be 0520 213e b3fa 833d
00000090: 86dd 3b3e b402 2a3e 6bd2 b3bc a43b 8a3d
000000a0: 062c 513d a325 8a3d 876b 063e 6671 0abd
000000b0: 1748 1dbe fa4b 223d a4f5 f4bd 5c87 eabc
000000c0: e54a 47bd d43e 14be 8b04 683d 4db6 5dbd
000000d0: ae77 6abe e8fe 173e fa3e da3d 2d5f 65be
000000e0: 3521 53bd 5342 7fbd 8a75 e13d 7bda a3bd
000000f0: 0dd7 8b3d 3f18 85bd c133 4b3e c979 e03d
00000100: 13cd 073d 025e a03d f610 d33d 0dee 22be
00000110: 2f1a 36bd b067 1dbe df72 0cbe 9827 25be
00000120: 918e 703d 280a 65bd 3914 3ebd eb5c cebd
00000130: b18f 6c3d 283f 283e 5bf1 0cbd 29ad f43d
00000140: 3102 db3d 81ca b63d 4c79 443e 1722 bc3b
00000150: bd8c ea3c b977 54bd 2067 4f3d 754e 78bd
00000160: 2203 bbbd 86d6 55be 669a 633d 7cb3 873e
00000170: bf58 2b3e 5fe9 a13d 37f9 9a3d 569a 933d
00000180: b382 203c 2df6 b73d 5609 543d 25e7 8e3c
00000190: 0393 2dbc bb25 1cbc f2ab de3d eaeb 773e
000001a0: 2928 7e3e 98e9 36bc 2a77 3bbe d722 afbd
000001b0: 3010 47bd 227d 5fbd dc20 aabd 209b b73c
000001c0: d9e0 213e de11 8c3e 73c7 083e cc59 c73d
000001d0: 7715 633e ac15 f63d ade8 d0bd 8fd8 04bd
000001e0: 78e1 d03d a3a0 3cbe 95fe 433d 5444 a53d
000001f0: f5fe 953d 4c86 963d 6e3e f6bd 3bf9 273e
00000200: ef5b 443d 8843 c7bd 3664 073e 8c3a 093e
00000210: fd50 dabb 7200 503e c4e2 ce3c 11b8 323d
00000220: 9d8a 6dbd 2c4a ca3c c80e b53c 6bc1 d2bd
00000230: 5f5a d4bc 99b8 923c e4f8 243e 4e76 da3d
00000240: 4f8f 14be f280 4cbd 4f95 45bd b74e c03c
00000250: 21d4 d93d 93ed 2dbe 5674 1cbe 7196 733e
00000260: 0696 6bbe 6241 97bd 1105 403e d9ce 3b3e
00000270: 8eee 383e bfd5 b63d 57a6 1b3d 3f7b 24be
00000280: f4ac c2bd 664d 2bbd 540a 02bc 1dd4 ffbd
00000290: ec17 7dbd 088a cebd a90d ba3d 67c6 8fbd
000002a0: 4b3e 833c 4d55 c3ba 3090 943d 443f b73d
000002b0: 885b 6d3d f4f1 bbbd b301 8b3d 16ae 3c3d
000002c0: 6c2c 5cbd 0fc3 0abe 630c e53c 6fcf efbd
000002d0: 692c 3d3e 3697 90bd bac7 f9bd e5d4 773e
000002e0: 1f2f c3bd 8f8e 203e 3555 563c 7be2 113e
000002f0: 415a 74bd 16ba 1fbe 3bb6 1c3d 526b 0b3e
00000300: 8e27 423e 9811 393d a8a2 ef3d 8efc 303d
00000310: 18a4 99bc 7571 9d3e e657 bf3d 0591 733e
00000320: 157c d2bb 2c39 ac3c 7915 1bbe 0e05 653c
00000330: 9fea 63bd 0965 813e cf51 a63d cf46 513e
00000340: ac98 0c3b cde5 083b b48b 863e 7ef4 a0bc
00000350: d382 073d 77a7 0e3e f825 bfbd d9ac 843d
00000360: 53d6 9a3b 7c0a bf3d aa35 c83d 0642 b73d
00000370: 7962 053e c32c f73d 2371 703c aa69 74bb
00000380: 3cda 1f3e ac78 153d b5d4 d0bd 37bb 2b3e
00000390: ee6b 043e 77db d4be eec4 aabd efb0 32be
000003a0: c1e7 24be faee c4bd ba19 41be 14bd 0e3e
000003b0: 924d 86bc 75fe 663d a5b5 6dbd a976 2abc
000003c0: e3f8 6d3d eb51 043e 11f4 533e 1a78 113e
000003d0: f5cd 2b3d b3ec 1dbe 9395 05be f55f 1abb
000003e0: 06c7 f8bd fce8 6c3d dd72 eabd 0dff bd3d
000003f0: ee19 043e 1fb3 933e 2f91 9ebe 5282 ea3d

state_encoder.relation_encoder.model.2.bias f4 [120]
-0.32460335 -0.3257236 -0.06512479 0.11624921 -0.39203978 -0.17914449 0.21851443 -0.17048012
-0.032984387 0.29177108 -0.019522754 0.083045416 -0.29862013 -0.07573461 -0.27094406 -1.3610412
-0.13334464 0.004521793 0.112399116 0.049169008 0.13278322 -0.27950034 0.003335688 0.2706897
-0.090624966 -0.037540264 -0.022283291 0.07458424 -0.22644523 -0.17987542 -0.18643901 0.23773009
-0.16759917 -0.026245994 -0.18013856 -0.20353909 -0.37829506 -0.03959605 0.027891483 -0.17045097
-0.5936416 -0.016935142 -0.094621465 -0.3459875 -0.42112917 0.027065638 0.2022549 -0.013780817
-0.059070006 -0.20760094 -0.06454216 -0.2984149 -0.2636252 -0.03885071 -0.19526078 -0.07188676
0.09634725 -0.22484443 0.19005096 -0.18954298 -0.34518167 0.2206321 0.20954528 0.1974002
0.1269017 0.20372194 -0.08789087 -0.2893535 0.26567906 0.056357805 0.14529656 -0.0022081118
0.07474554 -0.35048136 0.0668148 -0.5499597 0.025947861 0.025933325 -0.2588162 0.053211823
-0.08798751 0.10397834 0.05846975 0.16230224 0.12969553 -0.30545738 -0.03341449 -0.46264666
0.24453852 -0.08066715 -0.12341099 0.12667835 -0.08699247 0.09987838 0.09084407 -0.23067777
0.003421006 -0.1898361 0.07097181 -0.06756494 -0.07995986 -0.2525275 -1.8419913 -0.12616111
0.24437329 -0.1978519 -0.3822558 0.20813751 0.12042185 -0.0588447 0.23559405 -0.18374008
-0.64451534 0.21609946 0.25278753 0.19715238 -0.07471319 0.09232389 -0.020945968 0.1378729
00000000: 6932 a6be 3ec5 a6be 2560 85bd 1114 ee3d
00000010: 70b9 c8be a771 37be 3fc2 5f3e 5792 2ebe
00000020: a31a 07bd 0563 953e 2fee 9fbc b713 aa3d
00000030: bde4 98be bf1a 9bbd 2eb9 8abe 9936 aebf
00000040: 7f8b 08be 8d2b 943b 8231 e63d 7165 493d
00000050: 53f8 073e ab1a 8fbe 8f9b 5a3b d797 8a3e
00000060: 9599 b9bd d2c3 19bd 738b b6bc 9fbf 983d
00000070: 42e1 67be 4331 38be dee9 3ebe 846f 733e
00000080: 1e9f 2bbe d701 d7bc 3e76 38be 8d6c 50be
00000090: e4af c1be 782f 22bd ae7c e43c b38a 2ebe
000000a0: e5f8 17bf 91bb 8abc e6c8 c1bd 4625 b1be
000000b0: 3e9e d7be c2b8 dd3c e91b 4f3e f0c8 61bc
000000c0: 64f3 71bd 5795 54be ae2e 84bd d6c9 98be
000000d0: e2f9 86be ec21 1fbd 71f2 47be 5e39 93bd
000000e0: b551 c53d 9e3d 66be b89c 423e 8e17 42be
000000f0: a7bb b0be 62ed 613e 0a93 563e 4723 4a3e
00000100: 85f2 013e 7c9c 503e 2100 b4bd 2426 94be
00000110: 1607 883e 71d7 663d 9fc8 143e f8b5 10bb
00000120: 3114 993d 4b72 b3be 33d6 883d 29ca 0cbf
00000130: 9c90 d43c 2072 d43c 8f83 84be a4f4 593d
00000140: cc32 b4bd 99f2 d43d fa7d 6f3d 8f32 263e
00000150: e8ce 043e e964 9cbe a2dd 08bd 06e0 ecbe
00000160: 4e68 7a3e d234 a5bd e7be fcbd f8b7 013e
00000170: 1c29 b2bd 098d cc3d 750c ba3d cb36 6cbe
00000180: f532 603b 6564 42be ab59 913d 7d5f 8abd
00000190: ffc1 a3bd 494b 81be 5fc6 ebbf 6130 01be
000001a0: fe3c 7a3e b099 4abe 08b7 c3be 0022 553e
000001b0: bb9f f63d 2407 71bd 913f 713e 5c26 3cbe
000001c0: f5fe 24bf 2d49 5d3e 5e6d 813e 50e2 493e
000001d0: 3b03 99bd 4f14 bd3d e196 abbc 8e2e 0d3e

state_encoder.relation_propagator.linear.weight f4 [100, 320]
-0.037081808 -0.06944391 -0.07204916 -0.0538824 -0.39448154 0.09779839 0.09728745 0.014404094
-0.052892283 0.11687013 0.16971262 0.00887804 -0.030675836 -0.03959769 -0.015156766 -0.029060552
0.007649054 0.079355896 0.033307217 -0.09799268 0.05032106 0.19516508 -0.17827278 -0.041952707
-0.32062933 -0.04731452 0.085180074 0.04765364 0.1531724 -0.09921346 -0.08223428 0.095850594
-0.041630153 -0.092476726 -0.06838698 -0.05841379 -0.31490466 0.025910746 -0.04378345 -0.65986556
-0.16302072 -0.54131436 -0.071353845 -0.45899495 0.0517369 0.0010897123 0.08304801 0.028628351
0.08296186 0.13669866 0.038240843 0.062988706 0.17065084 0.07168385 0.038579665 0.027221354
0.01976542 -0.15254416 -0.042035885 -0.15083575 0.029854575 0.018224632 -0.24618028 0.012140429
-0.0038752148 -0.5469475 -0.08371924 -0.4209642 -0.031462774 -0.01076138 0.028627558 -0.117907256
0.25746503 -0.010762782 0.009056266 -0.09668593 0.017795438 -0.12818848 -0.0654814 0.08871854
-0.18577375 -0.0552984 0.10887274 -0.22509012 -0.21175918 -0.61936414 -0.15905562 -0.32162106
-0.025181564 0.19148669 0.0697544 -0.08989972 0.1809401 -0.0519248 -0.018665899 0.08858567
-0.016547238 -0.11675245 -0.11179014 0.11752547 0.23794365 0.08212876 0.29909754 0.08704955
-0.1313677 -0.15990585 -0.035425086 0.078085914 0.010828208 -0.22335173 0.11116581 -0.35507077
-0.36135668 0.1505955 -0.009227046 -0.03574397 0.060342886 -0.21630226 0.12365548 -0.31195974
0.10520954 -0.12856026 -0.10050674 0.17127067 0.107967965 0.038523458 0.23009317 0.06385734
0.077390045 0.11449432 0.03976559 0.031426333 0.13883771 0.21796745 -0.013366567 0.058096834
-0.0033015134 0.11461002 -0.04710296 0.03068333 -0.16593434 -0.19882709 0.030020306 -0.18956214
0.038090017 0.027377507 -0.006078376 -0.13276087 0.039621927 -0.009034962 0.0688089 0.13949001
-0.09948833 -0.2102587 -0.018341037 -0.037916332 0.027660834 -0.10330735 -0.04182415 0.078475095
0.15113603 -0.13623486 -0.08354087 -0.09543432 -0.06930878 0.041965913 0.16625555 -0.06541929
-0.049758457 -0.09612487 0.04513415 -0.14234827 0.14571239 -0.011652679 -0.002769185 -0.019806063
-0.11725008 0.063672416 0.1785901 0.033753697 0.026959615 -0.05898387 -0.12750845 -0.031309314
0.18091749 0.06046197 0.1833061 0.1330422 0.07363859 0.04009725 -0.13902265 0.039970692
-0.13175376 -0.03699598 0.03728608 -0.1910721 -0.018502232 -0.15383232 -0.12391334 -0.08972003
0.073621914 -0.05688353 -0.13651332 0.008106687 0.34086666 0.0041048722 0.0021415397 -0.007614119
-0.14278553 0.019176593 0.05620022 0.014793268 -0.012952402 0.01902553 0.094884306 -0.2664055
-0.33621 0.043659143 -0.05426488 0.0161762 -0.036528517 -0.021638157 0.025033182 -0.15232728
-0.1464616 0.09373483 0.2009904 0.034294475 -0.005209368 0.29967394 -0.11215985 0.0077492204
-0.175866 -0.13886984 0.045221403 0.10714819 0.0992539 -0.041609876 0.020716785 -0.19990748
0.0080326665 -0.13825493 -0.07206751 0.19450068 0.14178573 0.08911899 -0.051428325 0.10279566
0.037981812 0.048248086 -0.07820772 0.06380081 -0.12735768 -0.017526029 -0.01214696 0.051717076
00000000: 18e3 17bd 9c38 8ebd 838e 93bd cbb3 5cbd
00000010: 7cf9 c9be 864a c83d a53e c73d 26ff 6b3c
00000020: 94a5 58bd 9b59 ef3d 25c9 2d3e 3375 113c
00000030: e44b fbbc 3031 22bd 1654 78bc 6510 eebc
00000040: eaa4 fa3b 5885 a23d 266d 083d 63b0 c8bd
00000050: 751d 4e3d 5bd9 473e 248d 36be 9ad6 2bbd
00000060: 8729 a4be dfcc 41bd e472 ae3d 7730 433d
00000070: 3ad9 1c3e 6d30 cbbd 726a a8bd 514d c43d
00000080: 6184 2abd 7064 bdbd 790e 8cbd 4c43 6fbd
00000090: 2f3b a1be c642 d43c 4656 33bd f3ec 28bf
000000a0: e7ee 26be 9493 0abf f721 92bd 6301 ebbe
000000b0: 12ea 533d add4 8e3a 1315 aa3d 0186 ea3c
000000c0: e8e7 a93d bcfa 0b3e 6ea2 1c3d 3900 813d
000000d0: 18bf 2e3e fbce 923d b605 1e3d 51ff de3c
000000e0: 17eb a13c 8934 1cbe d22d 2cbd b074 1abe
000000f0: 9591 f43c d34b 953c af16 7cbe a6e8 463c
00000100: 51f7 7dbb c004 0cbf fe74 abbd 9f88 d7be
00000110: 1cdf 00bd 8050 30bc 5784 ea3c 5c79 f1bd
00000120: 75d2 833e 6156 30bc bc60 143c 4603 c6bd
00000130: bdc7 913c d743 03be 1d1b 86bd 11b2 b53d
00000140: 793b 3ebe 9380 62bd acf8 de3d 067e 66be
00000150: 66d7 58be a68e 1ebf 7adf 22be 84ab a4be
00000160: 9149 cebc 1615 443e 65db 8e3d 581d b8bd
00000170: 5d48 393e 19af 54bd 3ae9 98bc 676c b53d
00000180: 138e 87bc e91b efbd 3bf2 e4bd 32b1 f03d
00000190: 80a7 733e 2033 a83d 5023 993e 0947 b23d
000001a0: 4185 06be 5cbe 23be e519 11bd 82eb 9f3d
000001b0: cc68 313c 51b6 64be e6aa e33d d6cb b5be
000001c0: be03 b9be b535 1a3e 092d 17bc 4568 12bd
000001d0: 1a2a 773d 577e 5dbe 163f fd3d 30b9 9fbe
000001e0: 1978 d73d 4da5 03be 7ad6 cdbd 9461 2f3e
000001f0: 4f1e dd3d c6ca 1d3d 8b9d 6b3e a3c7 823d
00000200: ac7e 9e3d ff7b ea3d 3ee1 223d e6b8 003d
00000210: 792b 0e3e dc32 5f3e 72ff 5abc f2f6 6d3d
00000220: 345e 58bb a8b8 ea3d 09ef 40bd 9b5b fb3c
00000230: b1ea 29be 5499 4bbe 25ed f53c 941c 42be
00000240: 4704 1c3d cb46 e03c 1d2d c7bb 77f2 07be
00000250: 9a4a 223d 6107 14bc aeeb 8c3d 78d6 0e3e
00000260: 8ac0 cbbd 0f4e 57be f13f 96bc 284e 1bbd
00000270: f998 e23c ce92 d3bd cd4f 2bbd 8db7 a03d
00000280: 67c3 1a3e 2781 0bbe 7a17 abbd 1273 c3bd
00000290: c3f1 8dbd 73e4 2b3d e53e 2a3e 8cfa 85bd
000002a0: 86cf 4bbd 1edd c4bd 96de 383d bfc3 11be
000002b0: a135 153e e1ea 3ebc 377b 35bb 5340 a2bc
000002c0: cf20 f0bd af66 823d 53e0 363e 5141 0a3d
000002d0: 69da dc3c 1299 71bd 9391 02be 323e 00bd
000002e0: 6f42 393e f8a6 773d 98b4 3b3e 373c 083e
000002f0: d4cf 963d 043d 243d f45b 0ebe 4fb8 233d
00000300: 75ea 06be 1989 17bd 4ab9 183d 68a8 43be
00000310: fe91 97bc 3886 1dbe 47c6 fdbd 23bf b7bd
00000320: 16c7 963d b4fe 68bd 26ca 0bbe e9d1 043c
00000330: 1386 ae3e 2a82 863b 1359 0c3b dc7f f9bb
00000340: 5f36 12be 3b18 9d3c 3432 663d 775f 723c
00000350: 5036 54bc 6edb 9b3c b452 c23d 4d66 88be
00000360: b823 acbe eed3 323d da44 5ebd f383 843c
00000370: ed9e 15bd 8142 b1bc 6312 cd3c affb 1bbe
00000380: 08fa 15be 0cf8 bf3d 6dd0 4d3e 5d78 0c3d
00000390: 59b3 aabb dd6e 993e 10b4 e5bd 2ced fd3b
000003a0: 3716 34be e533 0ebe 143a 393d 8370 db3d
000003b0: a145 cb3d 1e6f 2abd 3fb6 a93c 8cb4 4cbe
000003c0: 729b 033c b392 0dbe 2198 93bd 302b 473e
000003d0: 4730 113e 0484 b63d 82a6 52bd 8886 d23d
000003e0: d192 1b3d c99f 453d 5e2b a0bd 00aa 823d
000003f0: 0d6a 02be bf92 8fbc 0b04 47bc 49d5 533d

state_encoder.relation_propagator.linear.bias f4 [100]
-0.1877265 0.05256108 -0.087273985 -0.036218528 -0.065536134 -0.10305801 0.31602898 -0.13463841
-0.22330238 0.07500042 0.039787527 -0.009114374 -0.06778907 0.19826612 0.05461798 -0.13751942
-0.1615088 -0.2923234 0.0658454 0.048624013 -0.016718477 0.1173054 -0.04401565 -0.015104761
0.044531647 -0.11758838 -0.13395362 0.07407608 0.030821154 0.15433736 -0.023927703 -0.1067547
-0.095749 0.011433228 -0.0100615 0.019757029 -0.069594614 -0.11193453 0.20904009 0.027337294
0.042355638 -0.07114012 0.15407513 0.013675265 0.10301119 0.082084164 -0.028467778 -0.017626127
-0.05222363 -0.071717516 -0.023063457 -0.09214237 -1.3090893 0.08107769 0.053030964 0.10497576
0.1202522 -0.096690804 0.087535754 -0.15439689 0.0110005895 -0.054424476 0.0032327035 0.13141583
-0.073517166 -0.119958065 -0.34499484 -0.23681697 -0.3052915 -0.019758102 -0.084903695 0.041422524
-0.026643755 -0.508187 -0.035529885 0.07734529 -0.027097497 -0.008884064 -0.2017776 -0.011992294
0.13030066 -0.06509678 0.033996608 -0.32279786 -0.11429572 0.059783515 -0.2650397 -0.0073058447
0.09846802 -0.502525 0.10626784 -0.028667737 0.0880781 -0.0883164 0.046813276 -0.09748255
0.057103056 0.17053662 -0.1643148 -0.09767829
00000000: 603b 40be 494a 573d b4bc b2bd e159 14bd
00000010: cf37 86bd 1410 d3bd 8dce a13e a7de 09be
00000020: 61a9 64be d299 993d 3ff8 223d 7554 15bc
00000030: ffd4 8abd 4606 4b3e 1ab7 5f3d e4d1 0cbe
00000040: 9062 25be 6aab 95be f4d9 863d f929 473d
00000050: 30f5 88bc d03d f03d c149 34bd f679 77bc
00000060: d166 363d 2dd2 f0bd 232b 09be 33b5 973d
00000070: a57c fc3c 9d0a 1e3e 0804 c4bc 35a2 dabd
00000080: 0d18 c4bd 6f52 3b3c fdd8 24bc 7ed9 a13c
00000090: 9f87 8ebd ee3d e5bd 9b0e 563e 76f2 df3c
000000a0: 1b7d 2d3d e9b1 91bd dfc5 1d3e 380e 603c
000000b0: 88f7 d23d be1b a83d 4235 e9bc ab64 90bc
000000c0: 72e8 55bd a2e0 92bd 93ef bcbc 24b5 bcbd
000000d0: 3d90 a7bf 0f0c a63d ff36 593d 88fd d63d
000000e0: c946 f63d d405 c6bd f245 b33d 381a 1ebe
000000f0: d13b 343c 33ec 5ebd c4db 533b df91 063e
00000100: 2b90 96bd 93ac f5bd 2aa3 b0be 2680 72be
00000110: 2b4f 9cbe bedb a1bc fde1 adbd aaaa 293d
00000120: 0144 dabc 8b18 02bf c987 11bd 3567 9e3d
00000130: 92fb ddbc 778e 11bc ca9e 4ebe 547b 44bc
00000140: 896d 053e 7651 85bd 0740 0b3d c345 a5be
00000150: e013 eabd 8fdf 743d 49b3 87be de65 efbb
00000160: 9aa9 c93d 7aa5 00bf f4a2 d93d 9ad8 eabc
00000170: 4a62 b43d 3bdf b4bd 47bf 3f3d eea4 c7bd
00000180: e5e4 693d 27a1 2e3e 2442 28be 8e0b c8bd
